src/Poli/data/model_baseline.pth (torch, 74561 bytes, 13 tensors)

embedding.weight f4 [64, 3]
0	0xbe9d2f8f	-0.30700347
1	0xbf0de818	-0.5543227
2	0x3e066c64	0.13127285
3	0x3e85be3f	0.2612171
4	0xbeaaddcc	-0.33372343
5	0x3d64660b	0.05576138
6	0xbd1b6367	-0.037936594
7	0x3f187184	0.5954821
8	0xbe3c2d42	-0.1837664
9	0xbe258e4c	-0.16167563
10	0x3edb8bb5	0.42880026
11	0xbdfadfa4	-0.12249687
12	0x3ea57748	0.32317567
13	0x3e8dda9f	0.27705857
14	0x3db4b906	0.08824353
15	0x3d5fda8e	0.05465179
16	0x3ed9eb66	0.42562407
17	0x3e187271	0.14887406
18	0xbb0122a5	-0.0019704488
19	0xbe965475	-0.2936131
20	0x3ecaeda4	0.3963443
21	0xbdd46637	-0.103710584
22	0x3c8674cc	0.016413115
23	0x3e6bac9c	0.23015064
24	0x3da293d0	0.07938349
25	0xbe259b16	-0.16172442
26	0x3e10eec4	0.14153582
27	0x3f030072	0.51172554
28	0xbe83e613	-0.2576147
29	0xbe9f85e0	-0.31156826
30	0x3ecaa334	0.3957764
31	0x3e9708ee	0.29499
32	0xbdc6c4eb	-0.09705528
33	0xbe92ad2d	-0.28647748
34	0x3ec2a930	0.38019705
35	0xbe8d10f3	-0.27551994
36	0xbe789a9c	-0.24277729
37	0xbe700463	-0.23439173
38	0xbeb60b22	-0.3555537
39	0xbbf14fdc	-0.0073642563
40	0xbd8f6d73	-0.07003298
41	0x3eb7a9c5	0.3587171
42	0xbea72924	-0.32648575
43	0xbe5ae8fa	-0.21377936
44	0x3e96a062	0.29419237
45	0x3b10c864	0.0022092098
46	0x3da3c9c6	0.079974696
47	0xbf11d726	-0.56968915
48	0x3e84941f	0.25894257
49	0x3dafcda6	0.08584146
50	0xbe85c048	-0.2612326
51	0x3f004392	0.50103104
52	0x3d0602b9	0.03271744
53	0xbe8b813b	-0.27247033
54	0xbdced2a4	-0.1009877
55	0xbd3c2b4e	-0.045939736
56	0xbe8b7392	-0.2723661
57	0x3f05474f	0.52061933
58	0xbefc95c7	-0.4933302
59	0x3e91703a	0.28405935
60	0x3ddba9f7	0.107257776
61	0xbe48e573	-0.19618778
62	0xbef69d9f	-0.4816713
63	0xbecbf472	-0.39834934
64	0x3ea970d9	0.33093908
65	0xbed01a8a	-0.40645248
66	0x3f058f1d	0.521715
67	0x3e99ab23	0.3001338
68	0xbe201cf8	-0.1563605
69	0xbefacc7a	-0.48984128
70	0x3e69c0f6	0.22827515
71	0x3ea38f74	0.31945384
72	0x3d5266d7	0.051367607
73	0xbe982260	-0.29713726
74	0xbec7af40	-0.39000893
75	0xbef7d5e9	-0.48405388
76	0xbf03ac4b	-0.51434773
77	0x3e9554fa	0.29166394
78	0xbf030fc1	-0.51195914
79	0x3dd2253b	0.102610074
80	0x3eeed32a	0.4664548
81	0xbe9aef82	-0.30260855
82	0xbf0ade19	-0.54245144
83	0xbdf88c20	-0.12136102
84	0xbe15427b	-0.14576142
85	0x3ccfa423	0.025346821
86	0x3eecfad1	0.46285108
87	0x3f0d0215	0.550813
88	0x3e36d2c7	0.17853843
89	0xbf07bcf9	-0.53022724
90	0x3e0780ad	0.1323268
91	0xbe916406	-0.28396624
92	0x3e8b93d3	0.27261218
93	0x3ea9ceaa	0.33165485
94	0xbca40081	-0.020019772
95	0xbf14ea6d	-0.58170205
96	0xbea20f50	-0.31652308
97	0x3ed77a06	0.42085284
98	0x3e830f50	0.2559762
99	0x3ed31e0a	0.41233855
100	0xbec21f45	-0.37914482
101	0xbc6155f4	-0.013753403
102	0xbe42c892	-0.19021824
103	0xbf08e66b	-0.5347659
104	0xbde1fc06	-0.11034398
105	0xbdf9129d	-0.12161753
106	0x3ef83b70	0.48482847
107	0x3e5db819	0.21652259
108	0xbed42b45	-0.41439262
109	0x3e512ffe	0.20428464
110	0xbe8df9b5	-0.27729574
111	0xbd794718	-0.060858816
112	0x3ee267e2	0.4421988
113	0xbc0a2ff4	-0.0084342845
114	0x3ed79a8a	0.4211009
115	0xbec7d06f	-0.3902621
116	0xbf064d5c	-0.5246179
117	0xbebba58b	-0.36649737
118	0x3e1d54c3	0.15364365
119	0x3edba9f9	0.42903116
120	0x3ed23e58	0.4106319
121	0x3ec12df8	0.37730384
122	0x3eb87ede	0.36034292
123	0x3ec99c13	0.39376888
124	0x3ebea6c8	0.3723662
125	0xbea65a6d	-0.32490864
126	0xbe2acada	-0.16678944
127	0x3e8b787b	0.27240357
128	0xbebb93e3	-0.36636266
129	0xbf11d569	-0.56966263
130	0x3e89e656	0.26933545
131	0xbedf05e1	-0.43559173
132	0xbe6bd126	-0.23029003
133	0x3f08adde	0.533903
134	0xbec53431	-0.3851638
135	0xbdec91c4	-0.1155124
136	0x3e6aaa7a	0.22916594
137	0xbdd8256d	-0.105540134
138	0xbf039fac	-0.51415515
139	0x3e3bac19	0.18327369
140	0xbf114640	-0.5674782
141	0x3ec9d0de	0.39417166
142	0x3e16a4bb	0.14711277
143	0x3eb3af9b	0.35094914
144	0xbe231113	-0.15924482
145	0xbee00a13	-0.43757686
146	0x3c3de15a	0.0115893725
147	0xbed7197c	-0.4201163
148	0x3e38a62d	0.18032141
149	0xbedf3d35	-0.43601385
150	0xbe34d0d1	-0.17657782
151	0xbe1dd864	-0.15414578
152	0xbefc4595	-0.49271837
153	0xbebca49b	-0.36844334
154	0xbe11ae5a	-0.14226666
155	0xbe140a93	-0.14457159
156	0xbe9ab15e	-0.30213445
157	0x3ec6d5b1	0.3883491
158	0xbe1b6cbc	-0.15178198
159	0x3efbbd15	0.49167696
160	0x3eba46a0	0.36382008
161	0x3e4cded8	0.20006883
162	0x3ec5a36f	0.38601252
163	0xbeb66942	-0.3562718
164	0xbed8ef88	-0.42370248
165	0x3ed575eb	0.41691527
166	0xbe002a77	-0.12516199
167	0xbee11c81	-0.4396706
168	0xbecc7205	-0.3993074
169	0xbe5492c4	-0.20759112
170	0x3ed792cd	0.42104188
171	0xbe6a6036	-0.22888264
172	0xbcd2ee5b	-0.025748422
173	0xbdf8ae99	-0.12142677
174	0x3ebbad35	0.36655584
175	0xbeb7ba69	-0.35884407
176	0xbd4d6667	-0.050146487
177	0x3ed5c8aa	0.41754657
178	0x3cd48f40	0.025947213
179	0x3eee514e	0.46546406
180	0xbc331926	-0.010931289
181	0x3eedd055	0.46448007
182	0xbea07c1c	-0.31344688
183	0x3e5ca086	0.2154561
184	0x3ef95b76	0.48702592
185	0x3d6efe6c	0.058348104
186	0x3f093ce6	0.5360855
187	0xbe2abefc	-0.16674417
188	0x3e3e78a0	0.18600702
189	0x3db5c926	0.08876257
190	0xbd9e41ef	-0.077274196
191	0xbec4c51d	-0.38431635

embedding.bias f4 [64]
0	0x3e4e13c9	0.20124735
1	0xbf09c877	-0.5382151
2	0x3cd9b6c7	0.026576413
3	0x3e63c204	0.2224198
4	0x3e94f09b	0.29089817
5	0x3e32bba8	0.17454398
6	0x3b72eaab	0.0037066143
7	0x3c7576c1	0.014981926
8	0xbe48888c	-0.19583338
9	0xbe85c038	-0.26123214
10	0x3e870ca0	0.2637682
11	0x3eef5a8a	0.46748763
12	0x3f12604b	0.5717818
13	0xbc57e59f	-0.0131773045
14	0x3ecf6ce6	0.4051277
15	0xbdffc671	-0.124890216
16	0x3ee550e3	0.44788274
17	0xbe0e575d	-0.13900514
18	0xbefdbbf6	-0.49557465
19	0xbed379e7	-0.41303942
20	0xbeb2327a	-0.34804136
21	0x3e28c435	0.16481097
22	0xbdfdc57d	-0.123911835
23	0xbf2076e0	-0.6268139
24	0xbebc4564	-0.3677169
25	0x3f17bd0a	0.59272826
26	0xbd379fb6	-0.044830047
27	0xbf06a707	-0.52598614
28	0x3e54a749	0.20766939
29	0x3ef03feb	0.46923766
30	0x3ef44152	0.47706085
31	0x3e9e4663	0.30913076
32	0x3edcec5d	0.4314908
33	0x3ea032f2	0.31288868
34	0xbead2885	-0.33819976
35	0xbe602890	-0.21890473
36	0x3eedbc0f	0.4643254
37	0xbeca9a17	-0.39570686
38	0xbf021b1b	-0.5082261
39	0xbe96ef2b	-0.29479346
40	0xbe2f0f14	-0.17095596
41	0xbf12fb0a	-0.57414305
42	0xbf121330	-0.5706053
43	0xbf092781	-0.53575903
44	0xbef5f044	-0.4803487
45	0xbea3ddef	-0.3200526
46	0xbd227ed2	-0.039671727
47	0xbbb10a91	-0.005402871
48	0x3f0fe9ca	0.5621611
49	0x3dc1bfc7	0.09460407
50	0xbf119598	-0.56868887
51	0xbed38460	-0.41311932
52	0xbec75c18	-0.3893745
53	0x3d23b17a	0.039964177
54	0xbf0c6d67	-0.54854435
55	0x3da66b00	0.081258774
56	0x3bca3cff	0.006171822
57	0x3e83fe68	0.25780034
58	0x3ee07135	0.4383637
59	0xbec49f6b	-0.38402876
60	0xbdce8980	-0.1008482
61	0xbee30180	-0.44337082
62	0xbd90e701	-0.070753105
63	0xbde3004b	-0.1108404

norm1.weight f4 [64]
0	0x3f74ab04	0.9557345
1	0x3f7e7205	0.9939273
2	0x3f803257	1.0015363
3	0x3f807150	1.003458
4	0x3f7b0373	0.9805214
5	0x3f80d3d8	1.006465
6	0x3f8410c7	1.031762
7	0x3f817d72	1.0116408
8	0x3f812054	1.0087991
9	0x3f7c3e98	0.9853301
10	0x3f7a3032	0.9772979
11	0x3f81e317	1.0147427
12	0x3f8139b7	1.0095738
13	0x3f75fd99	0.96090084
14	0x3f80470e	1.0021684
15	0x3f82fe2f	1.0233821
16	0x3f7a90f6	0.9787744
17	0x3f73faf8	0.9530482
18	0x3f7e2441	0.9927407
19	0x3f755911	0.9583903
20	0x3f79f283	0.9763567
21	0x3f84df2d	1.0380608
22	0x3f832037	1.0244206
23	0x3f8116d7	1.0085095
24	0x3f78e86a	0.97229636
25	0x3f7ae56e	0.9800633
26	0x3f74e089	0.95655113
27	0x3f7ef8f7	0.9959864
28	0x3f6cbff6	0.9248041
29	0x3f7cc60f	0.98739713
30	0x3f78a65e	0.97128856
31	0x3f8121b4	1.008841
32	0x3f7c39c5	0.9852565
33	0x3f766d47	0.96260494
34	0x3f81687c	1.0110011
35	0x3f7fdd0f	0.99946684
36	0x3f8583f9	1.04309
37	0x3f7f7432	0.99786675
38	0x3f8242ce	1.0176637
39	0x3f828bfd	1.0198971
40	0x3f7f464e	0.9971665
41	0x3f787afe	0.9706267
42	0x3f7deb8c	0.9918754
43	0x3f830669	1.0236331
44	0x3f82966f	1.0202159
45	0x3f7cd5f4	0.98763967
46	0x3f89008a	1.070329
47	0x3f775e8a	0.9662863
48	0x3f796aa1	0.9742833
49	0x3f81f2b6	1.0152194
50	0x3f7a715e	0.97829235
51	0x3f78ed4e	0.972371
52	0x3f7ec847	0.9952435
53	0x3f71cd12	0.9445354
54	0x3f79196e	0.9730443
55	0x3f7ba4f1	0.98298556
56	0x3f6ef7e7	0.9334702
57	0x3f805154	1.0024819
58	0x3f816d3a	1.0111458
59	0x3f838029	1.0273486
60	0x3f7d353c	0.98909354
61	0x3f7a97f1	0.97888094
62	0x3f76f733	0.96470946
63	0x3f77715c	0.9665735

norm1.bias f4 [64]
0	0xbc6e40d8	-0.014541827
1	0x3be65140	0.0070287287
2	0x3c986cf8	0.018606648
3	0x3ca8e7aa	0.020618279
4	0x3c0acb0f	0.0084712645
5	0x3c95e648	0.018298283
6	0x3c5945e3	0.013261291
7	0x3c45e561	0.012078614
8	0x3bd1fa35	0.006408001
9	0x3c1bcad5	0.009508808
10	0x3ccd1a34	0.025036909
11	0x3cb841dd	0.022492344
12	0xbbbd0b97	-0.005769204
13	0xbc63c973	-0.01390301
14	0x3c836d34	0.016043283
15	0xbc52a15a	-0.012855852
16	0xbb1b9de5	-0.0023745236
17	0x3c6aeab5	0.014338185
18	0xbc3954ba	-0.011311704
19	0xbc8d0435	-0.01721392
20	0x3b83d488	0.0040231384
21	0x3d13518a	0.035966434
22	0xbc0ff94a	-0.0087874625
23	0xbd1a80c9	-0.037720475
24	0x3c2508fe	0.010072945
25	0x3be7f05d	0.007078214
26	0xbc82cb73	-0.015966153
27	0x3bb66c16	0.005567084
28	0xbbf396f8	-0.0074337684
29	0xbb6176df	-0.0034403128
30	0xbc5ab216	-0.013348123
31	0xbc06b256	-0.00822123
32	0xbc24afd1	-0.0100516835
33	0xbc174a20	-0.009233981
34	0xbc460a2f	-0.012087389
35	0x3c616c7d	0.013758776
36	0x3d11044b	0.035404485
37	0xbc0d410c	-0.008621465
38	0xbc67b84c	-0.014143061
39	0x3c3263a3	0.010888013
40	0x3a8f5ee0	0.0010938309
41	0x3b921983	0.0044586076
42	0xbc546002	-0.012962343
43	0xbc2bc74b	-0.010484527
44	0x3c5ba675	0.013406386
45	0xbc5a1ce2	-0.01331255
46	0x3cc0ba6a	0.02352639
47	0xbc5d3bfc	-0.013503071
48	0xbc3a6bdc	-0.011378255
49	0x3c9e6c1c	0.01933866
50	0x3c2fc959	0.010729157
51	0x3a764638	0.00093946187
52	0xbc84c8e8	-0.01620908
53	0x3beab05a	0.007162136
54	0x3bbba846	0.005726847
55	0x3c703807	0.014661795
56	0xbcdc9845	-0.026928077
57	0x3c96ea82	0.018422369
58	0x3c213140	0.009838402
59	0xbcba7c69	-0.022764402
60	0x3c046115	0.008079787
61	0x3c23a906	0.009989029
62	0x3ac33baf	0.0014895106
63	0x3c68f8b7	0.0142194545

norm2.weight f4 [64]
0	0x3f7c60bb	0.985851
1	0x3f7cbbe4	0.987242
2	0x3f805783	1.0026706
3	0x3f7df9ea	0.99209464
4	0x3f825edb	1.0185198
5	0x3f7ba48c	0.98297954
6	0x3f8116d0	1.0085087
7	0x3f7f77be	0.9979209
8	0x3f80c7b0	1.006094
9	0x3f7c9b55	0.9867452
10	0x3f842c0a	1.032594
11	0x3f7ac268	0.9795289
12	0x3f7a2a64	0.9772093
13	0x3f7da665	0.9908202
14	0x3f7d9c94	0.99067044
15	0x3f798bad	0.97478753
16	0x3f807895	1.0036799
17	0x3f803c85	1.0018469
18	0x3f7ca42c	0.98688006
19	0x3f819087	1.0122231
20	0x3f80080c	1.0002456
21	0x3f79a37e	0.97515094
22	0x3f8275f4	1.0192246
23	0x3f7fa198	0.9985595
24	0x3f7cd2a0	0.9875889
25	0x3f80d25a	1.0064194
26	0x3f7873fc	0.9705198
27	0x3f80f19e	1.0073736
28	0x3f76f55a	0.96468127
29	0x3f80e703	1.0070499
30	0x3f80b04f	1.0053805
31	0x3f7b30f7	0.9812159
32	0x3f7ccd54	0.98750806
33	0x3f7e867c	0.99423957
34	0x3f7ce79f	0.98790926
35	0x3f806bea	1.0032933
36	0x3f8698c8	1.0515375
37	0x3f801d4c	1.0008941
38	0x3f79ac0d	0.97528154
39	0x3f7baf95	0.9831479
40	0x3f7dc637	0.99130577
41	0x3f7c3191	0.9851313
42	0x3f815c74	1.010634
43	0x3f79f288	0.976357
44	0x3f81b035	1.0131899
45	0x3f80922b	1.0044607
46	0x3f775d25	0.966265
47	0x3f7955a8	0.97396326
48	0x3f801a83	1.0008091
49	0x3f7f6ff3	0.99780196
50	0x3f7c044d	0.9844406
51	0x3f81ab37	1.0130376
52	0x3f7ac909	0.97963005
53	0x3f813760	1.0095024
54	0x3f7ec41b	0.99517983
55	0x3f7e6182	0.99367535
56	0x3f805c5c	1.0028186
57	0x3f806a6e	1.003248
58	0x3f80374d	1.0016876
59	0x3f7e922c	0.9944179
60	0x3f811e37	1.0087346
61	0x3f842a21	1.0325357
62	0x3f81dbfb	1.0145258
63	0x3f8080dc	1.0039325

norm2.bias f4 [64]
0	0xbc82b971	-0.015957566
1	0x3c0b7052	0.008510666
2	0xbc5218ee	-0.0128233265
3	0x3c7938d4	0.015211303
4	0x3cb837fc	0.022487633
5	0xbc466587	-0.012109167
6	0x3c32191c	0.010870244
7	0x3b28c92c	0.0025754673
8	0xbcbf667d	-0.0233643
9	0x3b8695dc	0.00410722
10	0x3cbeff0b	0.023314973
11	0xbbd4d3d8	-0.0064949803
12	0xbc9daff7	-0.019248946
13	0xbc47288d	-0.012155664
14	0xbba0f6c5	-0.0049122297
15	0x3cae128e	0.021249082
16	0x3c417fbc	0.011810239
17	0xbbd6f391	-0.006559797
18	0x3bbb5150	0.0057164803
19	0xbbb52f79	-0.005529341
20	0xbc2ca00b	-0.010536204
21	0x3b842ce0	0.00403367
22	0x3c202bbf	0.009776055
23	0xbc34afc2	-0.011028232
24	0xbc13c90c	-0.009020101
25	0xbc1478d3	-0.00906201
26	0xbc78c2b5	-0.0151831405
27	0x3a29b65a	0.0006474011
28	0xbba854e6	-0.005137074
29	0x3c8ca501	0.017168524
30	0x3bbd07c3	0.0057687475
31	0xbc4bbf0e	-0.012435688
32	0xbc214f86	-0.00984562
33	0xbc766578	-0.0150388405
34	0x3c8ad988	0.01694943
35	0xbbdb14a3	-0.0066858097
36	0x3d371318	0.044695944
37	0xbc0afa27	-0.0084824925
38	0x3c062a54	0.008188803
39	0x39af511a	0.00033439026
40	0xbc984ea6	-0.01859219
41	0x3c574f18	0.013141416
42	0xbb91a07f	-0.0044441815
43	0x3c8c8dda	0.017157484
44	0x39280034	0.00016021804
45	0xbc504aa2	-0.012713106
46	0x3ba6dc8a	0.0050922083
47	0xbc5a4592	-0.013322251
48	0x3b65cafa	0.003506361
49	0x3c266620	0.010156184
50	0x3b72dfd0	0.0037059672
51	0xbbb0480e	-0.0053796833
52	0x3c40e1d4	0.011772592
53	0x3cdaf1fa	0.026726712
54	0xbc1393b8	-0.009007387
55	0xbb686cfd	-0.0035465353
56	0x3a63ca42	0.00086895016
57	0x3c236c8d	0.009974611
58	0x3b69b212	0.0035659117
59	0xbc5643e0	-0.013077706
60	0xbc9949ff	-0.018712042
61	0xbc785b18	-0.015158437
62	0x3bd5c688	0.006523911
63	0xbc77baaf	-0.015120192

norm3.weight f4 [64]
0	0x3f77e90f	0.96839994
1	0x3f7bacb1	0.9831038
2	0x3f805597	1.002612
3	0x3f80d064	1.0063596
4	0x3f79b1c4	0.97536874
5	0x3f820c5c	1.0160022
6	0x3f83d32b	1.0298818
7	0x3f82aa26	1.0208175
8	0x3f7de2be	0.99174106
9	0x3f7a303e	0.9772986
10	0x3f74cfc0	0.956295
11	0x3f7fc87f	0.9991531
12	0x3f804721	1.0021707
13	0x3f75c39b	0.96001595
14	0x3f80649e	1.0030706
15	0x3f8241af	1.0176295
16	0x3f7c26b4	0.98496556
17	0x3f770dcc	0.9650543
18	0x3f76c2d6	0.96391046
19	0x3f73cbfc	0.9523313
20	0x3f79e921	0.9762135
21	0x3f7e05dd	0.99227697
22	0x3f81e211	1.0147115
23	0x3f79cc75	0.975776
24	0x3f789c46	0.97113454
25	0x3f7e46ce	0.9932679
26	0x3f7710e8	0.9651017
27	0x3f7acce8	0.9796891
28	0x3f751de1	0.95748717
29	0x3f807b7e	1.0037687
30	0x3f78ea37	0.97232383
31	0x3f82c9de	1.0217855
32	0x3f7a428f	0.9775781
33	0x3f79ba43	0.9754984
34	0x3f7b12cf	0.98075575
35	0x3f818e23	1.0121502
36	0x3f7e90fd	0.99439985
37	0x3f7f1cab	0.9965312
38	0x3f82e9d1	1.0227605
39	0x3f83f183	1.0308079
40	0x3f7f60a3	0.9975683
41	0x3f7881cd	0.9707306
42	0x3f79fb0a	0.9764868
43	0x3f81eca1	1.0150338
44	0x3f81b8e6	1.0134552
45	0x3f7a613a	0.97804606
46	0x3f884ed4	1.0649056
47	0x3f753fca	0.9580046
48	0x3f7ae328	0.9800286
49	0x3f80a50d	1.005037
50	0x3f79586f	0.97400564
51	0x3f77a81c	0.9674089
52	0x3f79803a	0.97461283
53	0x3f7a1cdf	0.97700304
54	0x3f79187e	0.97303
55	0x3f795b87	0.97405285
56	0x3f774b34	0.96599126
57	0x3f79eac7	0.97623867
58	0x3f8058df	1.0027121
59	0x3f8937f6	1.0720203
60	0x3f794564	0.97371507
61	0x3f7c10b6	0.98463
62	0x3f783625	0.9695762
63	0x3f76fbf7	0.9647822

norm3.bias f4 [64]
0	0xbc7b040b	-0.015320788
1	0x3c77f4dc	0.015134063
2	0x3c83eb24	0.016103335
3	0x3c90109e	0.017586049
4	0xbc094246	-0.008377617
5	0x3c9d28d6	0.019184511
6	0x3c95ab69	0.018270211
7	0x3c7fee09	0.015620717
8	0x3c67e2a8	0.01415316
9	0x3c59600e	0.01326753
10	0xbc20040b	-0.009766589
11	0x3c8876a9	0.016658144
12	0xbc4bcd13	-0.01243903
13	0xbc24d855	-0.010061343
14	0x3cae2301	0.021256926
15	0xbcd75074	-0.02628348
16	0xbc249f67	-0.01004777
17	0x3c4a50a8	0.0123483315
18	0xbb972a7b	-0.0046132184
19	0xbbc771c6	-0.006086561
20	0x3c0d99b2	0.008642601
21	0x3c62f9cc	0.0138535015
22	0xbc19ed4a	-0.009394953
23	0xbc22b477	-0.0099307215
24	0x3c4c53d5	0.012471159
25	0xbb9088e8	-0.0044108517
26	0xbc75255f	-0.014962523
27	0x3c490ce1	0.012271137
28	0xbc06a9c5	-0.008219187
29	0xbc4b3b74	-0.012404311
30	0xbc84641a	-0.016161013
31	0xbc5ec5f8	-0.013597004
32	0xbc999c7e	-0.01875138
33	0xbc55f610	-0.013059154
34	0xbbcaddf9	-0.006191012
35	0x3c9e2f4f	0.019309668
36	0x3c6ccfe5	0.014453863
37	0xbbefa7a0	-0.0073136836
38	0xbc4d50d2	-0.012531476
39	0x3c486b1a	0.012232566
40	0x3bad6390	0.00529141
41	0x3b741672	0.0037244824
42	0x3afec5e9	0.0019437644
43	0xbbda6818	-0.006665241
44	0x3cbce978	0.023060545
45	0xbba7024a	-0.0050967084
46	0x3c6e53ab	0.014546315
47	0xbc6f497e	-0.014604924
48	0xbc7d5c07	-0.015463836
49	0x3ccc48a5	0.024936983
50	0x3c825f61	0.01591462
51	0x3c25cc27	0.0101194745
52	0xbc83861d	-0.016055161
53	0x3a9c269f	0.0011913365
54	0x3c14dd0c	0.009085905
55	0x3c778af2	0.015108811
56	0xbc73ad17	-0.014872811
57	0x3cab1da5	0.020888159
58	0x3c06d36c	0.008229118
59	0x3c247f5a	0.010040129
60	0x3bc12c39	0.0058951643
61	0x3c7b72b7	0.015347174
62	0x3bc55de4	0.0060231555
63	0x3c6a26d3	0.014291483

l2.to_qkv.weight f4 [192, 64]
0	0xbde9ebb7	-0.11421912
1	0xbbb6db4e	-0.0055803424
2	0xbc42620a	-0.011864195
3	0x3bef85f2	0.0073096687
4	0x3d7e4451	0.06207687
5	0xbdb1600a	-0.08660896
6	0xbc2fc684	-0.010728482
7	0x3dc3b6bd	0.09556339
8	0x3d42cb8c	0.0475574
9	0x3d021b45	0.031764288
10	0x3da9b184	0.082858115
11	0x3dd660fa	0.104677156
12	0x3d91efab	0.07125791
13	0xbe09af4c	-0.13445777
14	0x3db28c61	0.087181814
15	0x3d95f5ea	0.07322295
16	0xbdfad73b	-0.12248083
17	0xbdc0283a	-0.093826726
18	0xbdaaa47f	-0.083321564
19	0x3d243337	0.040087905
20	0xbd30f843	-0.04320551
21	0x3dd08855	0.10182253
22	0xbd9dfc14	-0.07714096
23	0xbd6957e3	-0.05696858
24	0xbd9659b3	-0.073413275
25	0x3d7ae330	0.06125182
26	0x3cdbb1c5	0.026818166
27	0x3d142699	0.036169622
28	0x3dba7609	0.09104545
29	0xbd3f52ed	-0.046709944
30	0xbd0529e2	-0.032510646
31	0x3e0219c8	0.12705147
32	0xbde824ad	-0.1133512
33	0xbe079a1a	-0.13242379
34	0xbd5678d5	-0.05236133
35	0xbdfc375b	-0.12315246
36	0x3bd82d6b	0.006597211
37	0x3d398ba5	0.04529919
38	0x3dfd61e3	0.12372186
39	0xbe0496ce	-0.12948152
40	0x3dea515b	0.114412986
41	0x3bfa3577	0.007635768
42	0x3d5a2fc2	0.0532682
43	0x3c9e9a73	0.019360757
44	0x3d9b5f0f	0.0758649
45	0x3dcd7879	0.10032744
46	0x3d6ff13d	0.058579672
47	0x3d8de83c	0.06929061
48	0xbc2d0a75	-0.010561575
49	0xbc051458	-0.008122526
50	0x3da447a3	0.08021476
51	0xbdddf788	-0.108382285
52	0xbdcbf431	-0.09958685
53	0x3d304030	0.043029964
54	0xbcaf73e9	-0.021417575
55	0x3d98e83a	0.07466169
56	0x3a47d003	0.0007622244
57	0xbd31cfdf	-0.043411132
58	0xbe006cf2	-0.1254156
59	0xbd193741	-0.03740621
60	0xbcd2af36	-0.025718313
61	0x3e0e7e20	0.139153
62	0xbd5bb93e	-0.053643458
63	0xbdcccb88	-0.09999758
64	0xbda811bb	-0.08206507
65	0x3e068245	0.13135631
66	0x3c769970	0.015051231
67	0x3ddc13ca	0.10745962
68	0x3d3508ad	0.044197727
69	0x3db89c86	0.090142295
70	0xbdbe1005	-0.09280399
71	0xbdcb8ac7	-0.09938579
72	0xbdaee65e	-0.08540033
73	0x3db3ea4d	0.08784924
74	0x3d96b42f	0.07358586
75	0xbe0d2fd1	-0.13787772
76	0x3db36ff9	0.087615915
77	0xbdd64694	-0.104626805
78	0xbd516f73	-0.051131677
79	0x3dcdc13d	0.10046623
80	0xbe03e676	-0.12880883
81	0x3d290638	0.041265696
82	0x3dee07b4	0.11622563
83	0x3c45e1c0	0.012077749
84	0x3daef4dc	0.08542797
85	0xbded8dba	-0.11599298
86	0xbc8b63cb	-0.017015358
87	0x3d22755b	0.0396627
88	0xbd5e6706	-0.05429747
89	0x3d28ac5e	0.041180007
90	0xbc473c57	-0.012160382
91	0x3d055215	0.032548983
92	0x3da7b118	0.08188075
93	0xbd8ba9c3	-0.06819489
94	0x3ce1d6a6	0.027568173
95	0x3d2ed14b	0.042680066
96	0x3d7ae6c8	0.061255246
97	0x3dc44df6	0.09585182
98	0xbbaf0791	-0.005341478
99	0x3c866776	0.016406756
100	0x3da3c504	0.07996562
101	0x3cf50640	0.029910207
102	0xbddc618b	-0.10760792
103	0xbdbc8174	-0.09204379
104	0x3da2fb90	0.07958138
105	0xbcee079e	-0.029056367
106	0xbd0672a6	-0.03282418
107	0xbdb6da84	-0.08928397
108	0xbc9102f8	-0.01770161
109	0x3dfeaf1e	0.12435745
110	0xbc3421e5	-0.010994409
111	0x3d9b1e4c	0.07574138
112	0xbd911861	-0.07084728
113	0x3d91b4b6	0.07114546
114	0x3db72dec	0.08944306
115	0xbd951076	-0.0727853
116	0xbd880b34	-0.06642762
117	0x3d2c0da8	0.04200521
118	0xbcca5d75	-0.024702767
119	0xbdcd52ca	-0.100255564
120	0xbd93fbd9	-0.072257705
121	0x3dcd5154	0.10025278
122	0x3c404036	0.011734059
123	0xbe080652	-0.13283661
124	0x3c87c656	0.016574066
125	0x3de03815	0.10948197
126	0xbd1461ce	-0.036226086
127	0x3cc8c7fc	0.024509422
128	0xbd95e3ba	-0.07318826
129	0xbdad66c9	-0.0846687
130	0xbde8eecd	-0.11373673
131	0xbe0763ad	-0.13221617
132	0xbccfd249	-0.025368826
133	0xbe10e17f	-0.1414852
134	0x3d2e07c4	0.042487875
135	0x3d635e47	0.05550983
136	0x3dbf20e5	0.09332446
137	0x3db2a2c1	0.08722449
138	0xbd9ded6b	-0.077112995
139	0xbd8c12e3	-0.0683954
140	0x3d7235b4	0.059133247
141	0xbc4d004e	-0.01251228
142	0x3ca4069c	0.020022683
143	0x3dcad5e2	0.09904076
144	0x3da77de6	0.0817831
145	0x3d8d13f2	0.0688857
146	0xbdd018f4	-0.101610094
147	0xbcf65dbb	-0.030073991
148	0xbcd18875	-0.025577763
149	0xbd9f4d66	-0.077784345
150	0x3dc7a7b5	0.097487845
151	0x3e1614dc	0.14656395
152	0x3d7a9a6b	0.06118242
153	0xbcbbe97b	-0.02293848
154	0x3d77d524	0.060506
155	0xbdc2ebc2	-0.095176235
156	0x3d97afad	0.07406554
157	0x3d6709f8	0.05640599
158	0xbd950346	-0.07276015
159	0xbdf6aae5	-0.12044314
160	0x3d0a96a7	0.03383508
161	0x3d5293b5	0.051410396
162	0x3df1dd41	0.11809779
163	0x3d4b9051	0.049698178
164	0x3d57f152	0.052720375
165	0xbde02a64	-0.10945585
166	0x3d36a0aa	0.044586815
167	0xbd472708	-0.048621207
168	0x3d74a20d	0.059724856
169	0x3d49c349	0.049258504
170	0xbd712e8f	-0.058882292
171	0x3debed8b	0.11519917
172	0xbda39cb7	-0.07988875
173	0x3df5e7f4	0.12007132
174	0xbe0c61cc	-0.13709182
175	0x3dc91791	0.09818948
176	0xbdc3d01a	-0.095611766
177	0x3d134379	0.03595302
178	0x3d46c9c0	0.048532248
179	0xbdca2682	-0.09870626
180	0x3dfe9bac	0.12432036
181	0x3d80fb58	0.0629794
182	0xbd67b7c8	-0.05657175
183	0x3c1956b4	0.009359051
184	0xbdae59ad	-0.08513198
185	0xbdf0c216	-0.11755769
186	0xbdaefde5	-0.0854452
187	0x3c41bc15	0.011824627
188	0x3db1e9e8	0.08687192
189	0xbd993f57	-0.07482784
190	0x3da2983a	0.07939191
191	0x3c421449	0.011845657
192	0x3c9bed3f	0.019034026
193	0xbbb48e53	-0.0055101304
194	0x3cd898ce	0.02644005
195	0x3dcfdcf7	0.101495676
196	0xbce52951	-0.027973803
197	0xbacf840e	-0.0015832202
198	0xbcf6cad1	-0.030126007
199	0x3d2c202d	0.042022873
200	0x3d61d6e6	0.055136584
201	0x3dd50dde	0.104030356
202	0xbc53a291	-0.012917177
203	0x3d5c8bd0	0.053844273
204	0x3cfd58a5	0.030926058
205	0xbdb19d9c	-0.0867264
206	0xbe0de47e	-0.13856694
207	0x3d9cc9fd	0.07655714
208	0x3d9cbd17	0.076532535
209	0xbd429d41	-0.04751325
210	0xbcca14df	-0.024668155
211	0xbddd7ccc	-0.10814819
212	0x3b5794c1	0.003289506
213	0x3de8d5e7	0.11368924
214	0x3c82e6b6	0.015979152
215	0xbd9d0a34	-0.07667962
216	0xbdd491e4	-0.10379389
217	0xbdeb6023	-0.11492946
218	0x3d564664	0.052313223
219	0xba29bd42	-0.000647504
220	0xbbf5b595	-0.007498453
221	0x3d4c9130	0.04994315
222	0x3a650e77	0.0008737812
223	0xbdc0918b	-0.0940276
224	0x3d98445c	0.074349135
225	0xbc790e41	-0.015201152
226	0x3ce97600	0.02849865
227	0xbdbee539	-0.093210645
228	0x3dc0e27e	0.094182
229	0x3d060a78	0.032724828
230	0x3db664d8	0.08905953
231	0x3d6c7809	0.057731662
232	0xbd34aa9f	-0.04410803
233	0x3b61d037	0.003445638
234	0xbbeedd66	-0.0072895763
235	0xbd929f6a	-0.07159312
236	0xbd21ba8b	-0.039484542
237	0xbd808933	-0.06276169
238	0xbd12737d	-0.03575467
239	0x3dccfe8c	0.100094885
240	0xbdc01ab8	-0.09380096
241	0x3e02107b	0.127016
242	0xbd57056f	-0.052495416
243	0xbcf29768	-0.029613212
244	0x3cf419e4	0.029797502
245	0x3db73045	0.089447536
246	0xbd109d3a	-0.035306193
247	0xbd73ffab	-0.059569996
248	0xbe083d6c	-0.1330468
249	0xbded51dc	-0.11587879
250	0xbd8a2ffd	-0.06747434
251	0x3df35560	0.11881518
252	0xbcd4c8d0	-0.025974661
253	0x3dc0942b	0.09403261
254	0xbd311c2d	-0.04323976
255	0x3dea3cf4	0.11437407

l2.to_out.weight f4 [64, 64]
0	0x3d82f90c	0.06395158
1	0xbdbc94c9	-0.09208066
2	0xbdebf689	-0.11521632
3	0xbd995ded	-0.07488618
4	0x3ce9a307	0.02852012
5	0x3d11f468	0.035633475
6	0x3cf463ea	0.029832799
7	0xbdc22e72	-0.09481515
8	0x3d7b52bd	0.061358202
9	0xbdb60355	-0.08887354
10	0x3caee83e	0.021350976
11	0x3c2e5ebf	0.010642706
12	0x3d042746	0.032264017
13	0x3d9fc429	0.078010865
14	0x3d9189d0	0.07106364
15	0x3dd1932e	0.102331504
16	0xbd92d40a	-0.071693495
17	0xbcb135b8	-0.02163206
18	0xbdd95d5f	-0.10613512
19	0x3de8f4bd	0.11374805
20	0xbde6d183	-0.1127043
21	0x3dd6bc56	0.10485141
22	0x3cefdd9e	0.02928048
23	0xbdf1a282	-0.11798574
24	0x3bdf9aca	0.006823872
25	0xbd845c8b	-0.06462964
26	0x3cf2b250	0.029626042
27	0x3da21c37	0.07915538
28	0x3db634cb	0.08896788
29	0xbdce06ae	-0.10059868
30	0x3df9bea4	0.12194565
31	0xbd926fa8	-0.07150203
32	0xbc19e516	-0.009392997
33	0xbcdc7b78	-0.026914343
34	0x3deed605	0.11661915
35	0xbd42e6dc	-0.047583446
36	0x3dc23546	0.09482817
37	0x3cd84dcc	0.026404284
38	0xbd4932bb	-0.049120646
39	0x3d93cf27	0.072172455
40	0x3daee2e5	0.085393704
41	0xbddcd16e	-0.10782133
42	0x3cdd63cb	0.027025124
43	0xbd92c9f9	-0.071674295
44	0xbe06c768	-0.13162005
45	0xbcbee23b	-0.023301234
46	0x3d14bae7	0.036311056
47	0x3de23cd4	0.11046758
48	0x3ddda653	0.108227395
49	0xbddfa6e8	-0.10920507
50	0xbd89c4bd	-0.06726978
51	0x3da99de2	0.08282067
52	0xbdd17700	-0.102277756
53	0x3d746360	0.059665084
54	0xbc8cced3	-0.017188465
55	0x3da42865	0.08015517
56	0xbd37098c	-0.04468684
57	0x3d0e7016	0.034774862
58	0xbdd8a3d7	-0.10578125
59	0x3d149471	0.036274377
60	0x3d906d13	0.07052054
61	0x3d918126	0.07104711
62	0xbc2c64ff	-0.010522126
63	0xbdb4a419	-0.08820362
64	0xbae4b07a	-0.0017447614
65	0xbd5284a9	-0.051396046
66	0x3ca67563	0.020319646
67	0x3da6457c	0.08118722
68	0xbd804cee	-0.06264673
69	0xbdb369cf	-0.08760416
70	0xbc8fded5	-0.01756231
71	0x3e067c14	0.1313327
72	0x3dca1b6a	0.0986851
73	0x3d1dee56	0.038557373
74	0xbd8a8e8c	-0.0676547
75	0x3e0ad8fc	0.13559335
76	0x3d3948e7	0.04523554
77	0x3d23fee6	0.040038012
78	0x3dcc1826	0.099655434
79	0xbde42a62	-0.111408964
80	0x3c1383cb	0.00900359
81	0xbdc9fe11	-0.098629124
82	0x3d81c389	0.063361235
83	0xbd8b1e1b	-0.067928515
84	0xbdb6f604	-0.089336425
85	0xbd4f1fbb	-0.05056737
86	0xbca6ec54	-0.020376362
87	0xbd9de557	-0.07709759
88	0x3cdd5aa5	0.027020762
89	0xbc9c55c5	-0.019083867
90	0xbd687a5d	-0.05675732
91	0xbd3af5d0	-0.04564458
92	0xbdee3847	-0.11631828
93	0x3d9e4f1f	0.07729935
94	0xbdb6c1cc	-0.089236826
95	0xbdac4370	-0.084113
96	0xbd4f1bda	-0.05056367
97	0x3d970d4a	0.073755816
98	0x3d25d251	0.040483776
99	0xbd816609	-0.0631829
100	0xbd6ff1cc	-0.058580205
101	0x3dbd1c54	0.09233919
102	0x3d0fb98a	0.035089053
103	0xbcdbf647	-0.026850833
104	0x3d12a25e	0.035799377
105	0xbd825774	-0.063643366
106	0x3c4f552c	0.012654584
107	0xbdf8afa2	-0.12142874
108	0x3db100c7	0.086427264
109	0x3ce156f5	0.027507285
110	0x3c9b63eb	0.018968543
111	0xbc3d24ae	-0.01154439
112	0x3cc1c89f	0.023655234
113	0xbd1d8250	-0.038454354
114	0xbdc26390	-0.09491646
115	0x3d26ee23	0.04075445
116	0x3d4a8645	0.049444456
117	0xbde882a8	-0.11353046
118	0xbc4861b5	-0.012230326
119	0xbdbe534e	-0.09293233
120	0x3d22bc04	0.039730087
121	0x3ce2cc3c	0.027685277
122	0x3dd8d846	0.10588126
123	0xbd5a3c4b	-0.053280156
124	0x3d26661e	0.04062473
125	0xbd340a21	-0.043954972
126	0xbdcc7dc1	-0.09984923
127	0x3da9a32e	0.08283077
128	0x3de0b952	0.10972847
129	0xbd862cb3	-0.065514944
130	0x3ae17c18	0.001720312
131	0xbd9f7ef2	-0.07787885
132	0xbc6d48e8	-0.014482714
133	0x3d8f2ba2	0.06990744
134	0x3de58d81	0.1120863
135	0xbd2e64cd	-0.0425766
136	0x3d119f17	0.03555211
137	0x3c1c6eea	0.009547928
138	0xbdc9882a	-0.09840424
139	0x3d7775ed	0.060415197
140	0x3d54f79a	0.051993944
141	0xbbcb9861	-0.0062132333
142	0x3dccd0a5	0.10000733
143	0xbda3ddf5	-0.08001319
144	0xbdafe2d0	-0.08588183
145	0x3b84eab0	0.0040562972
146	0xbded2284	-0.11578849
147	0xbd078fa5	-0.033095974
148	0xbda54bdf	-0.08071112
149	0xbd86bf87	-0.065795
150	0x3d02f62b	0.031973045
151	0xbd244a72	-0.04011006
152	0x3d879a5c	0.066212386
153	0x3c8b2fd3	0.016990578
154	0x3cdaa078	0.026687846
155	0xbd2c878a	-0.042121448
156	0x3b7de2c9	0.003873991
157	0xbd38e3c7	-0.0451391
158	0xbdf110d0	-0.11770785
159	0xbdbc6020	-0.09198022
160	0xbe0b8dd7	-0.13628326
161	0xbc89da9e	-0.016827878
162	0x3d120593	0.035649847
163	0x3d8b13b6	0.06790869
164	0xbdd50353	-0.10401025
165	0x3c5baab8	0.013407402
166	0xba1e4361	-0.0006037262
167	0xbb9a743a	-0.0047135623
168	0x3d86f6a7	0.06590014
169	0xbd38c6d1	-0.04511148
170	0x3d268adb	0.040659767
171	0x3dc84eec	0.09780678
172	0xbdc90c17	-0.09816759
173	0x3d5fbca0	0.054623246
174	0xbb1bb3bf	-0.002375826
175	0xbd939384	-0.07205871
176	0x3d0d6150	0.034516633
177	0x3bf6f524	0.0075365473
178	0xbde4baf4	-0.11168471
179	0x3da72ebc	0.08163211
180	0xbd553958	-0.05205664
181	0xbd8987e2	-0.06715371
182	0x3da5ade0	0.08089805
183	0xbc3c70d6	-0.011501512
184	0x3b0a9ed5	0.00211518
185	0x3cdb664f	0.026782183
186	0xbc4547d2	-0.012041049
187	0x3dbc5187	0.091952376
188	0x3dbeda08	0.0931893
189	0xbe043939	-0.12912454
190	0xbd924d50	-0.071436524
191	0x3dfe6ecc	0.124234766
192	0x3db5ae39	0.08871121
193	0x3d89fcbe	0.0673766
194	0xbdd872d1	-0.105687745
195	0x3c52f2e2	0.012875291
196	0xbc91799e	-0.017758187
197	0x3de5247c	0.111885995
198	0x3db9a05d	0.0906379
199	0xbad43470	-0.0016189944
200	0x3deec733	0.11659088
201	0xbcc7d3ea	-0.02439304
202	0x3cdf1ac6	0.027234446
203	0xbd614d35	-0.05500527
204	0xbdf31b1a	-0.118704036
205	0x3d70bc58	0.05877337
206	0xbdab5ccd	-0.0836731
207	0xbd6ba232	-0.05752773
208	0x3cb5488c	0.02212932
209	0xbd9ad75a	-0.07560606
210	0x3b57798e	0.0032878849
211	0x3d5aeefa	0.053450562
212	0x3d98ec19	0.07466907
213	0x3d5fc262	0.054628737
214	0xbd9966e7	-0.0749033
215	0x3b7bf33c	0.003844454
216	0xbd6676c0	-0.056265593
217	0x3d9eba07	0.07750326
218	0x3c91f1ba	0.01781546
219	0x3c73cf4c	0.014880966
220	0x3e0cf890	0.13766694
221	0xbe0dbac7	-0.13840781
222	0x3db869ec	0.09004578
223	0x3e0c3913	0.13693647
224	0x3d6a4e73	0.05720372
225	0xbdb408a5	-0.08790711
226	0x3d9c31fb	0.076267205
227	0x3d05447c	0.032536015
228	0xbcd6cfeb	-0.02622219
229	0x3dbd39fd	0.09239576
230	0xbd7bd6f8	-0.061484307
231	0x3da992d6	0.0827996
232	0xbda3f9a0	-0.080065966
233	0x3d764aa2	0.06012977
234	0xbdef81eb	-0.11694702
235	0xbd8ff16c	-0.070284694
236	0xbd87024f	-0.06592237
237	0xbdac4ca4	-0.084130555
238	0xbdd222d7	-0.102605514
239	0x3c242641	0.010018886
240	0x3e050c46	0.12992963
241	0xba1d0cac	-0.0005990963
242	0xbd4855cf	-0.04890996
243	0x3d8504a5	0.064950265
244	0xbdc851c8	-0.097812235
245	0x3da4bfdc	0.08044407
246	0xbda04beb	-0.0782698
247	0xbd177d0a	-0.03698448
248	0xbdacb7b3	-0.08433475
249	0xbd92f82d	-0.07176242
250	0x3de71fae	0.11285339
251	0x3dfc1adb	0.1230981
252	0x3d62e980	0.055398464
253	0xbd8632ae	-0.06552635
254	0xbc288d10	-0.010287538
255	0x3ce370d1	0.027763756

l2.to_out.bias f4 [64]
0	0x3d369d21	0.044583444
1	0x3dd1ca3c	0.10243651
2	0xbd51c016	-0.051208578
3	0xbdc1162c	-0.09428057
4	0x3d4714f7	0.048603978
5	0xbcd86b54	-0.026418366
6	0xbd7857d1	-0.060630623
7	0xbd1495bf	-0.03627562
8	0xbceb3ce9	-0.028715568
9	0xbda7c733	-0.08192291
10	0x3dcdd3c8	0.1005016
11	0xbcdb5c46	-0.026777398
12	0x3d1e56db	0.03865705
13	0xbcbb6e65	-0.022879789
14	0x3e0266d5	0.1273454
15	0x3b3a5676	0.0028432882
16	0xbdc42474	-0.095772654
17	0x3d05254e	0.03250628
18	0x3d7f45d2	0.062322445
19	0x3db76794	0.08955303
20	0xbcc75dc6	-0.024336707
21	0xbd710b4d	-0.058848668
22	0x3cf1830d	0.029481435
23	0xbe03d247	-0.12873183
24	0x3db2ba7b	0.087269746
25	0x3c361c3c	0.01111513
26	0x3d88ac70	0.06673515
27	0x3d8212f9	0.06351275
28	0x3d85f4d7	0.0654084
29	0x3c76f85b	0.015073861
30	0x3d6d235c	0.05789505
31	0xbab98b5d	-0.0014155913
32	0x3c9cedea	0.019156415
33	0x3cce881f	0.025211392
34	0x3d7feffc	0.062484726
35	0x3d2981c8	0.041383535
36	0x3dd3eac8	0.10347515
37	0x3da45c46	0.08025412
38	0x3bfef508	0.007780675
39	0x3dcb42c1	0.09924842
40	0x3d92c6fa	0.07166858
41	0x3d90e9f9	0.07075877
42	0x3ccd93a7	0.02509482
43	0xbdc159c5	-0.0944095
44	0xbdd32ada	-0.10310908
45	0xbe03f7a4	-0.12887436
46	0x3e03c213	0.12867002
47	0x3d801109	0.06253249
48	0xbdcf5ef2	-0.10125531
49	0x3dd5fdb1	0.104487784
50	0xbd33651d	-0.0437976
51	0x3e0057b4	0.12533456
52	0xbd3d75f3	-0.046255063
53	0x3d1dd6ec	0.038535044
54	0x3db3975f	0.08769106
55	0xbd88ffca	-0.06689413
56	0xbc7dfcfd	-0.015502212
57	0xbc3e27ba	-0.011606151
58	0x3d147b48	0.036250383
59	0xbd9de162	-0.07709004
60	0x3da23137	0.07919543
61	0xbd7a16cd	-0.0610569
62	0x3d9927f0	0.074783206
63	0x3dc5af1d	0.09652541

head.weight f4 [3, 64]
0	0xbd4ff2f0	-0.050768793
1	0xbdb5301a	-0.08847065
2	0xbdc9a904	-0.0984669
3	0xbcfdad53	-0.030966436
4	0xbd4c56e2	-0.049887545
5	0xbdcac2fd	-0.09900472
6	0x3d9e5c51	0.07732452
7	0x3c336c93	0.010951179
8	0xbd0db3ac	-0.034595177
9	0xbd8c5a4f	-0.068531625
10	0x3df5b627	0.119976334
11	0x3ca505db	0.020144394
12	0x3e06d214	0.13166076
13	0xbd9d7dd6	-0.07690017
14	0xbdc0d3b7	-0.094153814
15	0xbdc15bcd	-0.09441338
16	0x3e148673	0.14504413
17	0x3d3be73d	0.045874823
18	0x3dd9eafc	0.10640523
19	0x3ddb72b3	0.107152365
20	0xbdcb8b37	-0.099386625
21	0x3d0205a5	0.031743664
22	0xbd9f121a	-0.077671245
23	0x3bf361bc	0.0074274223
24	0x3d0bd3b2	0.034137435
25	0xbdc3d540	-0.095621586
26	0xbdbbe76b	-0.09174999
27	0x3e06c3ea	0.13160673
28	0xbdee2e08	-0.116298735
29	0x3dc44c41	0.09584857
30	0x3cdef016	0.027214091
31	0xbd8b0156	-0.06787364
32	0x3d3d03a4	0.04614605
33	0x3dc6081c	0.096695155
34	0x3ccb2155	0.024796167
35	0xbdaa3d6c	-0.083124965
36	0x3c3fa381	0.011696697
37	0x3d005103	0.03132726
38	0xbd8002aa	-0.06250508
39	0x3d8340f9	0.06408877
40	0x3daf7c81	0.08568669
41	0x3dab4530	0.08362806
42	0xbd3e2e43	-0.046430837
43	0x3ace9c3d	0.0015763115
44	0xbd288f9a	-0.041152574
45	0xbe0f9b6d	-0.14024134
46	0x3d44ecbe	0.048077337
47	0x3de649a6	0.11244516
48	0xbb80acf1	-0.003926866
49	0xbb3dbde7	-0.0028952302
50	0xbda8ea62	-0.0824783
51	0xbd6568da	-0.056008197
52	0x3cc11c56	0.023573082
53	0x3d16ddc7	0.036832597
54	0xbcb62017	-0.022232099
55	0xbda96245	-0.082706966
56	0xbd032afc	-0.032023415
57	0xbc976c83	-0.01848436
58	0xbd967aa5	-0.07347611
59	0xbc2c83c6	-0.010529464
60	0xbd6ec6e0	-0.05829513
61	0x3d851c89	0.06499583
62	0x3cdfe6df	0.027331768
63	0x3dc4a035	0.096008696
64	0xbdaa4cb3	-0.083154105
65	0x3cdacb5f	0.026708303
66	0x3d990578	0.07471746
67	0x3db7de04	0.08977893
68	0x3d7dac7d	0.061932076
69	0x3de24690	0.11048615
70	0x3dc1eaa4	0.09468582
71	0x3c8e9a53	0.017407572
72	0x3cb6c1e0	0.022309244
73	0x3c662ecf	0.014049246
74	0xbd871f78	-0.06597799
75	0x3d94ae7d	0.072598435
76	0x3c5b1ede	0.0133740585
77	0x3d040e57	0.032240238
78	0x3e0ed78b	0.1394941
79	0xbe0b3130	-0.13592982
80	0x3da47ed3	0.08032002
81	0x3ba82892	0.0051317895
82	0xbd80ea1e	-0.06294654
83	0x3d78c673	0.06073613
84	0xbd88bec6	-0.06677012
85	0x3cb11133	0.021614647
86	0x3d6eb5bf	0.058278795
87	0xbb2b38d9	-0.0026126413
88	0x3b769f39	0.0037631525
89	0xbdd410ba	-0.10354753
90	0xbd8f52d1	-0.06998218
91	0x3b861b47	0.004092607
92	0x3cfc7a97	0.030820174
93	0x3c9a5b4c	0.018842362
94	0xbdbadc7f	-0.091240875
95	0xbc9f10fe	-0.019417282
96	0xbdb9711b	-0.09054776
97	0xbb3af7c1	-0.002852902
98	0x3cf90868	0.030399516
99	0x3d9cb192	0.07651056
100	0x3cb9fb06	0.022702705
101	0x3da08452	0.07837738
102	0xbbd0a34a	-0.006367122
103	0xbb8aeb79	-0.0042394963
104	0xbd97cc28	-0.074119866
105	0xbde50710	-0.11182988
106	0xbd8c10b6	-0.06839125
107	0x3daf1771	0.08549393
108	0x3ce3105f	0.027717767
109	0xbd8a4e6e	-0.067532405
110	0x3db0f1dd	0.08639882
111	0xbd4e731f	-0.050402757
112	0xbd83b561	-0.0643108
113	0x3dfe5353	0.124182366
114	0x3dadfd93	0.08495631
115	0xbd1524eb	-0.03641216
116	0xbdd23096	-0.10263173
117	0x3e04533b	0.12922375
118	0xbd9c04d6	-0.0761811
119	0x3d84acfc	0.06478307
120	0xbcf3cfc4	-0.029762156
121	0x3d46f98a	0.048577823
122	0xbdb9f08c	-0.09079084
123	0x3c382e92	0.011241572
124	0xbd4dbb64	-0.050227538
125	0x3d5ef517	0.054432955
126	0x3dbb139c	0.091345996
127	0x3d6d7bd2	0.057979412
128	0xbdc362a8	-0.095403016
129	0x3d2175f7	0.03941914
130	0x3d929c23	0.07158687
131	0x3da7ab1c	0.081869334
132	0xbd75c88e	-0.060005717
133	0x3dd46caa	0.103722885
134	0x3dc33a4d	0.09532604
135	0x3d5bcf62	0.053664573
136	0x3db64ff8	0.089019716
137	0x3d8693fd	0.06571195
138	0x3d0e8104	0.034791008
139	0x3d74c419	0.059757326
140	0xbd93999d	-0.07207034
141	0xbd757918	-0.059929937
142	0x3d95b7ed	0.07310472
143	0xbd41287b	-0.047157746
144	0xbdfe4fa2	-0.124175325
145	0x3d63be10	0.05560118
146	0xb9268524	-0.00015880592
147	0xbd41bd75	-0.04729982
148	0x3d5dce3a	0.05415175
149	0xbcc96bf5	-0.02458761
150	0xbdf2c353	-0.118536614
151	0x3c83645d	0.016039068
152	0x3db9a4b0	0.09064615
153	0x3d466b59	0.04844222
154	0xbd959140	-0.07303095
155	0x3d92b898	0.07164115
156	0xbccae6e1	-0.024768295
157	0xbe14a390	-0.14515519
158	0xbdb5d913	-0.08879294
159	0xbdf894a1	-0.12137724
160	0xbce02136	-0.027359586
161	0xbd709525	-0.058735985
162	0xbd623589	-0.055226836
163	0x3da4266b	0.0801514
164	0x3ce6ff98	0.028198048
165	0xbd9e1ed5	-0.077207245
166	0xbe02a56e	-0.12758419
167	0x3df63e6d	0.120236255
168	0x3dda33c8	0.10654408
169	0x3d8220a6	0.063538834
170	0x3c70a8bd	0.014688668
171	0xbdcd22e0	-0.100164175
172	0xbcb2a5d6	-0.021807592
173	0x3ae98ae1	0.0017817878
174	0xbd702cd6	-0.05863651
175	0xbd86d238	-0.06583065
176	0xbdb3b3a7	-0.087745
177	0xbc733aa3	-0.014845523
178	0x3dae2afa	0.08504291
179	0x3cfa6f82	0.03057075
180	0xbe014df3	-0.12627392
181	0xbcaf18ac	-0.02137407
182	0x3db7fb69	0.089834996
183	0x3d8d7019	0.069061466
184	0xbbd94983	-0.0066310777
185	0x3c3c2ee3	0.011485788
186	0x3de3b71f	0.11118912
187	0x3d06a9de	0.03287684
188	0x3b4c8364	0.0031206245
189	0x3da1963a	0.078899816
190	0xbc2660c3	-0.010154906
191	0x3d9c2a80	0.07625294

head.bias f4 [3]
0	0x3c5481b1	0.012970374
1	0x3dafd4fa	0.08585544
2	0xbddbc23b	-0.10730406
