src/Poli/data/model_mp.pth (torch, 108807 bytes, 17 tensors)

embedding.weight f4 [64, 3]
000000 74 67 ec be e4 85 09 bf c8 42 ee be d9 cf ad 3d
       -0.46172678 -0.53719926 -0.46535325 0.084869094
000010 b3 af 35 be 31 eb 87 3e 7a 36 fc be 8c 75 df 3e
       -0.17742805 0.26546624 -0.49260312 0.4364437
000020 55 8f b6 3e 35 40 9a 3d fa 90 a2 bd 69 68 d8 be
       0.3565623 0.07531778 -0.07937808 -0.4226716
000030 24 16 43 3e a3 23 f2 3e 16 ba c6 3e 20 63 db 3e
       0.19051415 0.47292814 0.38813847 0.42849064
000040 fb 37 06 3e d0 60 a4 be 51 33 c3 3d a8 b2 f5 3e
       0.13107292 -0.32105112 0.09531272 0.47987866
000050 61 1c 87 bd 24 f8 c3 be e3 f2 00 3f 74 5f b2 be
       -0.0659721 -0.38275254 0.50370616 -0.3483845
000060 4d 5f 08 3f ec a6 a0 be 06 f2 d7 be cf 15 67 3e
       0.5327042 -0.3137735 -0.42176837 0.22566913
000070 4b 1a bf be 88 61 ea be 17 3c 8f be 13 7a af bd
       -0.37324747 -0.45777535 -0.27975532 -0.08568206
000080 d9 2e e9 3d bb ce 8f be f2 e0 9a 3e b8 f8 72 3d
       0.113858886 -0.2808741 0.30249745 0.059319228
000090 a6 f2 fe bd 2e 4b ee 3e 2f 3a 09 bf 13 11 7c 3e
       -0.12448625 0.46541733 -0.53604406 0.24615888
0000a0 e8 c8 d7 bd 4c 10 6e 3e fc 59 0b 3f 8b 86 b7 3e
       -0.10536367 0.23248404 0.5443418 0.35844836
0000b0 ce ce a8 b9 02 30 97 3e f8 4a 02 3d c0 a1 c7 be
       -0.00032197539 0.29528815 0.031809777 -0.38990593
0000c0 82 84 92 be 90 59 87 be 27 67 c5 bb 3f bd 70 3e
       -0.2861672 -0.26435518 -0.0060242596 0.23509692
0000d0 5a 30 ca be 58 b0 f8 be 1f d1 c6 3e 1a 1a c4 be
       -0.39490014 -0.4857204 0.38831422 -0.38301164
0000e0 76 a7 fe 3e 14 fb 00 3f c0 6c af be 9a 91 9f 3e
       0.49737138 0.50383115 -0.34262657 0.31165773
0000f0 b5 8d 17 3e 27 35 96 bd 96 26 97 3e 94 e2 03 3f
       0.1480015 -0.07334357 0.29521626 0.51517606
000100 c7 ae 7e 3e b9 f4 87 bd ea 0e 08 bf e1 84 b2 be
       0.2487136 -0.06638474 -0.5314776 -0.34867004
000110 42 0d 99 3c 37 5b 9a bd 6e 37 b0 bc 1e c0 4c be
       0.01868308 -0.07536929 -0.021510806 -0.19995162
000120 05 a9 75 be 06 8f 72 3e 70 6b 47 bd e7 b8 02 3f
       -0.23990257 0.23687372 -0.048686445 0.5106339
000130 91 74 ab 3e 58 e5 df be f7 5c 6b bc ee b1 04 bf
       0.3348737 -0.43729663 -0.014365426 -0.51834
000140 2d 5a 20 3d be a9 87 be 77 e3 06 bf 4e ff 03 bf
       0.0391485 -0.2649669 -0.52690834 -0.5156144
000150 99 b3 d5 be 7a 78 f4 3e 0b aa 37 3e d8 cf b9 3e
       -0.41738585 0.47748166 0.1793596 0.36291385
000160 08 b2 b0 bc a4 1e 11 3f 30 7b 90 3e e0 13 ea 3e
       -0.021569267 0.5668738 0.28218985 0.45718288
000170 65 6f 9e 3e e2 fd aa 3e 28 e3 8e 3d a4 9a 0b bf
       0.30944362 0.33396822 0.0697692 -0.5453284
000180 8d ee 22 bd 59 8a 03 be 48 33 b8 3c c0 32 08 bd
       -0.03977828 -0.12845744 0.02248539 -0.033251524
000190 00 39 47 be a6 0e 0e 3f 7a a2 d2 be ed 89 3d 3e
       -0.19455338 0.554911 -0.41139585 0.18509646
0001a0 a3 6f b5 be bc 03 b4 3e 0c 9a 87 3e 51 4e 9b 3e
       -0.35436735 0.351591 0.26484716 0.30333188
0001b0 ae c2 55 bd be 5c 10 bf 67 d0 f5 3c c7 a2 2d be
       -0.052187614 -0.56391513 0.0300066 -0.16956626
0001c0 bb 42 de 3d cc 88 1c bf 77 9a b1 be af 84 ac 3e
       0.108525716 -0.61146235 -0.3468816 0.3369498
0001d0 4f 2f f4 bb 4b 9d e1 3d 24 95 b8 be 7f ee b9 be
       -0.0074519287 0.110163294 -0.36051285 -0.3631477
0001e0 9a 41 95 be 37 7d 5d 3e 62 fc 28 be a3 cc 0a bf
       -0.29151613 0.21629797 -0.16502526 -0.542185
0001f0 4d de a9 3e 34 a1 8d 3e 1d 0a 7e be a3 76 c9 3e
       0.33177415 0.2766205 -0.24808545 0.39348325
000200 06 79 d6 3e 4d a4 ea 3e 37 5a 3e be cb 91 ac be
       0.4188921 0.45828477 -0.18589102 -0.3370498
000210 59 61 b6 3e 21 d4 26 3e 8c b9 38 be cd 08 a7 3e
       0.35621145 0.16291858 -0.1803953 0.32623902
000220 dd 20 07 3f c1 ba 9a 3d b2 c5 5e be ac 75 5a 3e
       0.5278452 0.07555152 -0.21755102 0.21333951
000230 24 04 02 be bb 1b 08 3f 04 4c 9a 3d ec d5 dd 3d
       -0.12696892 0.53167313 0.0753403 0.10831818
000240 c9 22 09 3f fa a0 56 be 00 30 d2 3e 1d 59 be be
       0.535687 -0.20959845 0.41052246 -0.37177363
000250 a5 ce b5 be 7a f6 52 be 1a e4 87 3e 9c c3 24 3e
       -0.3550922 -0.20601836 0.26541215 0.16090244
000260 44 9d 59 3e 99 5a dd 3d 04 6d 87 3e bf 74 e6 bd
       0.21251398 0.10808296 0.2645036 -0.11252736
000270 17 70 89 3e c2 51 17 bd a8 95 bc 3e 67 9b 73 be
       0.2684333 -0.036943205 0.3683293 -0.2378975
000280 51 80 f2 bd e6 9c 0c be 93 be 07 3f 33 e0 f6 3e
       -0.11840881 -0.13731727 0.5302517 0.48217925
000290 40 98 ac 3e dd d6 c2 be 44 47 84 3c 81 73 2b bd
       0.33709908 -0.38054553 0.016147263 -0.0418582
0002a0 c0 69 10 bf c6 95 99 be 53 c5 80 3e 15 d0 6d bd
       -0.5641136 -0.2999708 0.25150546 -0.05805977
0002b0 ee 03 8d be 4f 23 bb 3e bc 25 d5 3e 4e 44 c5 be
       -0.2754206 0.36550376 0.41630352 -0.38528675
0002c0 91 db 49 3e 51 bc 4a 3e c5 69 d7 3e 64 a3 dd be
       0.19712664 0.197984 0.42072883 -0.4328872
0002d0 50 7e e0 be 15 4a b2 3e fe 8d 0a 3f dd 23 cc 3e
       -0.4384637 0.34822145 0.5412291 0.39871112
0002e0 bc 3d a8 3e 66 16 a3 be 0f be a2 3e aa 46 c0 3e
       0.328596 -0.31853026 0.31785628 0.37553912
0002f0 1c d9 32 3e fa 87 f1 3e 93 29 f9 be 92 23 13 bd
       0.17465633 0.47174054 -0.4866453 -0.035922594

embedding.bias f4 [64]
000000 17 a0 0b 3e 36 bd 27 bd 44 46 33 3e b1 03 c1 3d
       0.13635288 -0.04095193 0.17507273 0.09424532
000010 f3 30 fc be ae f5 d2 be f3 e0 b6 3e ac ec 65 be
       -0.49256095 -0.41203064 0.35718498 -0.22453564
000020 ba 7c ca bd d1 e8 b7 be 06 8b 05 bf 87 31 12 bf
       -0.09887071 -0.35919812 -0.5216526 -0.5710682
000030 2c 0c 80 be 12 d9 4d be a3 d9 d9 3e 9d ae a4 3e
       -0.25009286 -0.20102337 0.42548856 0.3216447
000040 22 8f f8 be b8 56 84 3e 0c d6 e3 bd 55 c5 da 3e
       -0.48546702 0.2584741 -0.111248106 0.42728677
000050 a2 c7 b5 3d cb e0 64 3d e8 46 fd be a6 cc e3 be
       0.088759676 0.05587844 -0.4946816 -0.44492072
000060 6c 00 f9 be b2 51 f1 3e 0f 24 c7 3e 30 87 ea 3e
       -0.48633134 0.4713264 0.38894698 0.45806265
000070 69 1f 65 be 7a 92 ae 3e c4 7b ae be 8e 62 09 bf
       -0.22375263 0.34096128 -0.340788 -0.5366601
000080 b1 f1 a1 3e f0 be c6 be f0 cd 08 bd 42 04 30 bd
       0.31629708 -0.3881755 -0.033399522 -0.04297281
000090 0f 8d af 3e 73 58 ce 3e 4d 5d 67 bd bf b9 61 be
       0.34287307 0.40301856 -0.056485463 -0.22043513
0000a0 ba b0 bf be a3 5f 4c 3c 2f 21 7c be 27 94 65 3e
       -0.3743952 0.012473973 -0.24622034 0.22419797
0000b0 bd ea 08 bf c9 36 1d bd ba 96 96 be 7f bd d1 be
       -0.5348318 -0.038382325 -0.2941187 -0.40964887
0000c0 f6 78 d4 3e 5a f0 ed 3e d5 e4 ae be bb 75 e7 3e
       0.41498536 0.46472436 -0.3415896 0.4520701
0000d0 a4 6d b3 bd 32 9a 3b 3e 37 e6 1f be e9 ea dd be
       -0.08761147 0.1832054 -0.15615164 -0.43343285
0000e0 00 75 88 be b7 08 b7 be d2 9e d6 3d 7c 97 0d 3f
       -0.26651764 -0.35748836 0.10479511 0.5530927
0000f0 81 d6 02 be f8 1f 7b bd ec 18 74 3c de b0 35 3e
       -0.12777139 -0.061309785 0.01489852 0.1774325

norm1.weight f4 [64]
000000 87 5c 81 3f 2b 6c 7f 3f f7 ce 7a 3f 99 a7 78 3f
       1.0106362 0.99774426 0.97972053 0.97130734
000010 9b 73 80 3f 1a dd 83 3f 1e d7 7f 3f 10 16 7f 3f
       1.003528 1.030185 0.9993762 0.9964304
000020 2f d0 7f 3f c4 35 7a 3f 48 ef 7d 3f 42 bb 82 3f
       0.9992704 0.9773829 0.9919324 1.0213397
000030 91 a0 7f 3f 53 d4 7f 3f 02 db 7b 3f 08 ed 81 3f
       0.9985438 0.99933356 0.98381054 1.0150461
000040 7c 33 7d 3f 47 30 7f 3f e2 8f 7c 3f f6 76 7b 3f
       0.98906684 0.9968304 0.9865705 0.98228395
000050 56 c4 7a 3f a4 fc 7a 3f 6a ea 7c 3f 05 69 80 3f
       0.97955835 0.9804175 0.9879519 1.003205
000060 81 23 81 3f 33 04 81 3f 29 42 7c 3f c0 7a 7d 3f
       1.008896 1.0079406 0.9853845 0.99015427
000070 90 28 7d 3f 86 8d 79 3f 4c c9 7f 3f 6b 4a 7e 3f
       0.9889002 0.9748157 0.9991653 0.993323
000080 59 4d 7f 3f 53 70 7f 3f eb a7 80 3f 12 bb 80 3f
       0.997274 0.9978077 1.0051244 1.0057089
000090 49 5d 7d 3f 38 b3 7c 3f f1 ae 80 3f 3b b0 7a 3f
       0.98970467 0.98710966 1.0053388 0.97925156
0000a0 c0 2a 7d 3f 25 22 7b 3f 5f 73 7b 3f a0 3b 80 3f
       0.98893356 0.98098975 0.9822292 1.0018196
0000b0 b9 98 7f 3f b1 49 80 3f e2 fb 80 3f 9c 3d 7a 3f
       0.9984241 1.0022489 1.0076869 0.9775026
0000c0 71 57 80 3f fe 6c 7b 3f 34 26 7d 3f a5 20 81 3f
       1.0026685 0.98213184 0.9888642 1.0088087
0000d0 b3 52 7a 3f 91 4e 7c 3f 86 19 7a 3f 1b b3 81 3f
       0.9778244 0.9855738 0.97695196 1.0132784
0000e0 12 da 80 3f 80 ad 76 3f 3e 94 7e 3f e2 97 7c 3f
       1.006655 0.9635849 0.9944495 0.98669255
0000f0 bb 63 7b 3f dc 1e 80 3f 09 16 7b 3f 67 63 80 3f
       0.9819905 1.0009418 0.980805 1.0030335

norm1.bias f4 [64]
000000 11 a3 05 3c e5 b8 36 3b 9d a5 34 3c 96 fc 2d bb
       0.008156554 0.0027881202 0.011025813 -0.0026548258
000010 7a f2 59 3b 4a f6 b7 3b 67 7b 8d 3c a5 ec 83 b9
       0.00332561 0.0056140767 0.017270757 -0.0002516258
000020 05 58 6e bb f9 01 93 3a 4c 24 1c bc 54 86 3d bc
       -0.0036368382 0.0011215798 -0.009530138 -0.011567671
000030 b9 a4 8e bb 40 82 e2 bb 76 f0 04 3c 23 c6 28 3c
       -0.0043531326 -0.0069124997 0.008113971 0.010301146
000040 bd 80 44 bc fa 29 ef bb c4 4b 1b 3c c9 87 d9 ba
       -0.011993584 -0.007298705 0.009478513 -0.0016596253
000050 7b 1d 01 3b 36 c8 7f 3b 50 db 1d bc ef 58 12 bc
       0.001970141 0.0039029247 -0.009634808 -0.008932336
000060 02 5b ed ba de df 83 3c 20 87 b1 3c e9 59 1e 3b
       -0.0018108787 0.01609796 0.021670878 0.0024162477
000070 69 18 9a b9 04 70 76 bc ec 66 d6 3a 52 cf e6 bb
       -0.00029391356 -0.015041355 0.0016357577 -0.0070437575
000080 81 93 9b 39 75 cb 17 bb 2d 07 9f bb ba dc 3f 3c
       0.00029673803 -0.0023162041 -0.0048531503 0.01171034
000090 3b b8 c2 3b d6 eb f9 3a b8 2b 7f 3b 05 cc ad bc
       0.005942372 0.0019067477 0.003893597 -0.021215448
0000a0 88 01 2c 3c 84 2f b5 3b 5a d6 73 bc d6 17 61 bb
       0.010498412 0.005529346 -0.014882648 -0.0034346483
0000b0 57 81 1d 3b 68 66 ba bb 8f 23 55 ba 9a 1e 91 ba
       0.0024033391 -0.0056884773 -0.0008130604 -0.0011071742
0000c0 7b e6 27 3c d4 de fb 3a be 42 fc b7 25 c2 4d 3c
       0.010247822 0.0019216188 -3.007182e-05 0.012558495
0000d0 f9 99 85 bc 81 e0 7b 3b ac 1f 0e 3b 4b 43 d0 3b
       -0.016308771 0.0038433375 0.0021686358 0.006355678
0000e0 70 f4 32 bc b0 60 0e bc ae 97 d8 bb ae 62 4e 3c
       -0.010922536 -0.008690044 -0.0066098785 0.012596769
0000f0 6c e9 a9 bb c0 01 b3 3b 5f 61 05 3b 80 c5 4d ba
       -0.0051852968 0.005462855 0.0020352227 -0.0007849559

norm2.weight f4 [64]
000000 0e 23 80 3f 1d d3 7f 3f 2c a4 80 3f 80 98 80 3f
       1.0010698 0.9993151 1.0050101 1.0046539
000010 67 90 7c 3f a4 1b 79 3f d0 3c 80 3f 94 86 7a 3f
       0.9865784 0.973078 1.0018559 0.978616
000020 a4 20 7b 3f b6 5f 7c 3f 92 50 7c 3f 51 93 80 3f
       0.9809668 0.98583543 0.9856044 1.0044957
000030 75 a6 80 3f f3 88 7a 3f 12 af 7e 3f 57 52 80 3f
       1.0050799 0.9786522 0.99485886 1.0025128
000040 7e 08 80 3f 9b dd 7f 3f 53 19 7f 3f 3e 40 7c 3f
       1.0002592 0.9994752 0.99648017 0.98535526
000050 16 b2 80 3f 28 75 80 3f 6f a5 7f 3f de 45 7e 3f
       1.0054348 1.0035753 0.99861807 0.9932536
000060 25 95 82 3f c7 f2 79 3f ba 6f 7b 3f 09 cc 7e 3f
       1.0201765 0.97636074 0.98217356 0.9953008
000070 94 67 80 3f 75 e2 7e 3f a3 5f 7a 3f 58 aa 7d 3f
       1.003161 0.99564296 0.9780218 0.9908805
000080 cf 12 81 3f 3b 9b 7c 3f f2 93 7d 3f 38 07 7b 3f
       1.0083865 0.9867436 0.9905387 0.9805789
000090 9a 3b 7c 3f 80 3d 7f 3f 7f 55 7f 3f 26 48 7f 3f
       0.98528445 0.99703217 0.9973983 0.99719465
0000a0 24 b5 7d 3f b6 89 7d 3f 68 83 7c 3f e5 38 7c 3f
       0.99104524 0.99038255 0.9863801 0.98524314
0000b0 b4 95 80 3f 70 36 7c 3f 74 83 7d 3f 73 c6 7e 3f
       1.0045686 0.98520565 0.99028707 0.9952156
0000c0 e4 54 7a 3f e9 2b 80 3f 9b 96 7b 3f 90 26 82 3f
       0.9778578 1.00134 0.9827668 1.0168018
0000d0 ef c3 7b 3f 8f ff 80 3f 8f 85 80 3f 9f 8e 79 3f
       0.98345846 1.007799 1.0040759 0.9748325
0000e0 72 9b 79 3f 94 1f 80 3f 5c 9e 7e 3f 35 19 7f 3f
       0.97502816 1.0009637 0.9946039 0.9964784
0000f0 9c d6 7d 3f 3d 57 7e 3f 23 be 7d 3f 23 77 7b 3f
       0.9915559 0.99351865 0.9911825 0.98228663

norm2.bias f4 [64]
000000 60 42 0a bc d9 23 50 bb 5f 14 0d 3c ab e1 40 bb
       -0.008438677 -0.0031759648 0.008610814 -0.0029431384
000010 77 60 bc 3b 58 74 36 3c aa 8c fb 3b 9d 3c 83 bc
       0.005748804 0.011136137 0.0076766806 -0.016020114
000020 a4 40 d2 ba 9f 22 f2 38 13 c1 4a bc 08 ff ad bc
       -0.0016040993 0.00011545908 -0.012375134 -0.021239772
000030 d7 41 3b bb 3b 3e 15 39 4a 27 3e bb 8a 57 05 3c
       -0.002857318 0.0001423293 -0.0029015117 0.008138547
000040 fa df d0 bb d7 96 33 3c 3a e0 5c 3c fc d6 16 bb
       -0.0063743563 0.010961256 0.013481194 -0.0023016324
000050 55 1f 85 3b ca 8d 95 3b 53 d1 f1 bb fa ae bc ba
       0.004062573 0.0045640217 -0.0073796897 -0.0014395409
000060 02 94 89 3c 34 8f 1d 3c c6 40 c9 bc 0a 5b 0c 3b
       0.016794208 0.009616662 -0.02456702 0.0021416568
000070 70 4b bc ba ba ac 8a ba 16 13 0d 3c 35 e9 ad 3a
       -0.0014365744 -0.0010580041 0.0086105075 0.0013268354
000080 ab c1 b5 ba 88 60 8f bc 04 6f 80 b9 c6 cd 44 3b
       -0.0013866922 -0.017502084 -0.00024496776 0.0030029877
000090 16 79 df ba 34 4a 54 3b c9 98 26 3c 61 e0 22 bc
       -0.0017049636 0.0032392861 0.010168263 -0.009941191
0000a0 66 c8 f8 bb 5a 9a a8 bb 9d 4b 27 bc 84 fc 2e b7
       -0.0075922487 -0.0051453533 -0.010210899 -1.0430002e-05
0000b0 a0 0c 8c bc 7b f4 a4 3b 46 2f 8d 3c 29 ee 18 39
       -0.017095864 0.005034027 0.017234456 0.00014584571
0000c0 99 75 2c 3c 17 09 95 3c 0d fb 15 3a 23 07 49 3c
       0.010526084 0.018192811 0.00057213084 0.012269768
0000d0 69 31 13 3b e3 55 c7 3b 62 02 ff 3a 0b 9a c3 3a
       0.002245987 0.0060832365 0.0019455666 0.0014923228
0000e0 a8 30 63 3b 32 46 c9 39 71 e6 21 3c ee 2a 90 bb
       0.0034666453 0.00038390007 0.009881602 -0.004399649
0000f0 84 39 9e 3a 77 2e 7e bb 8a 31 40 3a 03 51 e6 bb
       0.0012071584 -0.003878502 0.00073316006 -0.0070287003

norm3.weight f4 [64]
000000 6e d0 7f 3f 22 ce 7f 3f d3 79 7f 3f cb 9c 79 3f
       0.99927413 0.9992391 0.99795264 0.9750487
000010 4e 51 7b 3f a5 c0 7d 3f 91 a0 80 3f 03 40 7b 3f
       0.98170936 0.9912208 1.0049001 0.9814455
000020 0e a0 7b 3f 71 dc 7a 3f ea ac 7b 3f ae c1 81 3f
       0.982911 0.97992617 0.9831072 1.0137231
000030 ad 23 85 3f f7 de 7a 3f 24 36 81 3f e2 3d 81 3f
       1.0401512 0.9799647 1.0094647 1.009701
000040 40 89 7e 3f aa 3b 7d 3f 9e 82 7d 3f 14 8d 81 3f
       0.99428177 0.98919165 0.9902743 1.0121179
000050 48 e8 7a 3f e6 ec 83 3f 74 a5 80 3f 06 29 7f 3f
       0.98010683 1.0306671 1.0050492 0.9967197
000060 5b 81 7c 3f 46 87 7f 3f 39 f7 7f 3f 97 28 80 3f
       0.9863488 0.99815786 0.99986607 1.0012387
000070 47 ab 81 3f 5f 6f 7e 3f ee af 81 3f a5 44 80 3f
       1.0130395 0.9938869 1.0131814 1.0020949
000080 69 c2 7a 3f 01 a6 81 3f e7 2f 7f 3f f7 e3 7f 3f
       0.97952896 1.0128785 0.9968247 0.9995722
000090 9e f0 80 3f ae 21 81 3f 3f d8 7f 3f 0b c1 80 3f
       1.007343 1.0088403 0.9993934 1.0058912
0000a0 e6 01 80 3f 15 20 80 3f 11 48 80 3f 80 be 80 3f
       1.0000579 1.0009791 1.0021993 1.0058136
0000b0 5e ff 81 3f ce 9b 80 3f cb a1 7b 3f 0d d5 7f 3f
       1.0156057 1.0047548 0.9829375 0.99934465
0000c0 dc d9 80 3f 51 88 7f 3f 45 33 7c 3f 08 0d 7c 3f
       1.0066485 0.9981738 0.9851573 0.98457384
0000d0 e9 cf 7b 3f 29 49 80 3f de 60 81 3f 1f c9 7d 3f
       0.9836412 1.0022327 1.0107687 0.9913501
0000e0 5c 2e 7b 3f db 99 7e 3f b8 77 81 3f ab d3 7a 3f
       0.98117614 0.99453515 1.011466 0.9797923
0000f0 ee d1 82 3f 12 57 7f 3f 4e ac 81 3f ed d1 7a 3f
       1.0220315 0.99742234 1.0130708 0.9797657

norm3.bias f4 [64]
000000 93 04 1e bc e3 ab 44 3b 87 86 87 bb d4 37 f0 bb
       -0.009644645 0.003000968 -0.00413591 -0.007330874
000010 04 d5 9f ba 67 c1 fe bb 13 ae c3 3b cf 87 db bb
       -0.0012194221 -0.00777452 0.005971679 -0.0066995393
000020 c8 73 0c bc 8f 92 16 3b 94 af 79 3b f7 a4 8f 3b
       -0.008572526 0.002297554 0.0038099037 0.004383679
000030 3a da 06 3b 65 e1 4d 3b f7 9a 97 3b 47 87 7e bc
       0.002057685 0.0031414863 0.0046266275 -0.015535182
000040 b2 55 07 bc 05 4a 2f 3c 5e 27 10 bb c6 c9 d8 bb
       -0.008260177 0.0106988 -0.002199612 -0.00661585
000050 67 a9 31 ba 50 ef 59 3c 13 6f db bb 1c d3 81 bb
       -0.0006777257 0.013301685 -0.0066965907 -0.003961934
000060 fd 04 a0 ba 51 39 b7 3b 90 1c 0a bc b3 2b 0e bc
       -0.0012208518 0.0055915494 -0.008429661 -0.008677411
000070 84 b3 3e 3b 43 6c b4 3b 40 b1 d2 3b e4 5d 95 3b
       0.00290987 0.00550607 0.0064298213 0.004558312
000080 f5 ef 80 3b 15 e5 46 bc 20 95 c5 bb 7d 02 d8 3b
       0.003934855 -0.012139578 -0.00602974 0.0065920935
000090 b5 98 73 bc fa 44 b1 39 6b e1 d5 3b ef a1 4e bc
       -0.014867951 0.00033811462 0.006527116 -0.01261185
0000a0 f3 cd 67 bb ff 1f f0 b9 9c 80 ba 3a 7c 50 87 bb
       -0.0035370558 -0.00045800206 0.0014229002 -0.0041294675
0000b0 6a c5 7e bb 04 74 e7 3b 54 72 bb ba ec 99 40 bb
       -0.0038874992 0.0070633907 -0.001430104 -0.002938862
0000c0 df 05 15 3b d1 c4 dc bb b5 6b ed ba 26 24 43 bb
       0.0022739095 -0.0067373295 -0.0018113764 -0.0029776185
0000d0 30 b9 43 3b ca ad 73 3b 3a 0a 0a 3c e5 30 bf bb
       0.002986502 0.0037182444 0.00842529 -0.005834686
0000e0 ad 5e a9 bb 17 6f 72 3b ec 09 b2 bb b8 42 e2 bb
       -0.005168757 0.0036992484 -0.0054333117 -0.006904926
0000f0 5f 3f 40 3b 10 6e 23 bb 24 bf dd 3b 41 5a a3 3b
       0.0029334647 -0.0024937429 0.0067671705 0.0049851243

l1.proj.weight f4 [64, 64]
000000 d5 ee e3 bc fc 7a 1f 3d 12 bd c8 3d 3b 32 0c bc
       -0.027823845 0.038935646 0.09801687 -0.008556898
000010 cb bc cd 3d c2 ae 19 3b 6e b3 6c bd 8f 6c 23 3c
       0.10045775 0.002345011 -0.057788305 0.009974613
000020 7a 49 64 3d 3e 21 16 3d e8 5b 31 bc b6 74 7d bc
       0.055734135 0.036652796 -0.010825135 -0.015469721
000030 d2 2b ee bd 97 c1 c0 3c fb d4 cd bd bb d5 a6 bc
       -0.11629452 0.02352981 -0.100503884 -0.020365587
000040 7b 54 be 3d f6 42 8e 3d fe d6 fb bd 59 fc 00 3d
       0.09293457 0.069463655 -0.12296866 0.031490657
000050 12 df 8c bb 63 be 80 bb 01 ae 83 bc 08 bf 97 bc
       -0.004299053 -0.003928946 -0.016074182 -0.018523708
000060 2b d0 b0 3c 4c 01 b3 bd 55 38 06 3d f3 a3 c4 bd
       0.021583637 -0.08740482 0.032768566 -0.09601583
000070 54 be e7 bd ef 2e 5e 3d 78 2a 5b bd 09 ae c7 bd
       -0.11315599 0.054243978 -0.0535073 -0.097499914
000080 6c ac 01 3d 2c f1 0e bd 2d fd 5b bc 31 52 a7 3d
       0.031658575 -0.03489797 -0.013427061 0.08169974
000090 d8 dc 8a bb ef 3b 74 3d 2c ce 25 3d 34 ef a6 3d
       -0.0042377524 0.05962747 0.040479824 0.08151093
0000a0 eb db 02 bd e0 31 97 bb 77 c3 c4 bc f0 e1 08 3d
       -0.03194801 -0.0046141 -0.024018986 0.033418596
0000b0 a1 d0 2c bd 75 55 4d bd e3 28 90 bc d8 d4 39 bb
       -0.04219115 -0.050130326 -0.017597621 -0.0028355625
0000c0 80 1f 90 bd 14 d6 03 3e 57 46 d7 bd 22 58 36 bd
       -0.07037258 0.12874633 -0.10511463 -0.044517644
0000d0 06 c2 d6 3d 3a 18 60 3d 19 2c 11 bd 42 87 c1 bd
       0.10486226 0.054710604 -0.035442445 -0.094496265
0000e0 24 b0 80 b9 f3 69 d9 3b 18 02 99 3d 56 e6 10 bd
       -0.00024545297 0.0066349446 0.074711025 -0.035375915
0000f0 82 24 ef bc 31 53 fd bd 77 6b f8 3c c6 cf 84 bc
       -0.029192213 -0.12369383 0.03032468 -0.016212355
000100 d6 42 f9 3c 69 07 1f bd 55 2f 88 bd bf 76 98 bd
       0.030427378 -0.038825426 -0.06649653 -0.07444524
000110 3f 0f 11 3c 0f 76 d1 3d 5a 75 48 3d 82 98 7c 3d
       0.008853733 0.10227596 0.04894004 0.06166888
000120 74 21 b3 bd 55 38 a7 bc a8 94 8c bd 4f 75 0f bd
       -0.08746615 -0.020412603 -0.068642914 -0.035023984
000130 89 38 17 3d 6b 95 df 3c 8f b6 ae bc c4 ab af bc
       0.03691915 0.027292928 -0.021327285 -0.021444209
000140 fa 68 5e 3c 62 0e 50 bd 5e ed e3 bd 8f 22 a5 3d
       0.013574833 -0.050794967 -0.111292586 0.08063232
000150 29 fe a0 3c 9e 62 9a bc 6c 4f 15 bd 8b e6 b2 3d
       0.019652443 -0.018845852 -0.036452696 0.08735379
000160 aa a6 19 bd 5c 58 09 3e e5 04 4b bd 1c 26 a9 bd
       -0.03751246 0.13412613 -0.049565215 -0.08259222
000170 d7 10 c6 bc a8 9f e1 bd eb f6 af bd 0a ae 4a bd
       -0.024177952 -0.1101678 -0.08592018 -0.049482383
000180 96 16 b5 3d a5 1c e3 3d 7e c7 3d 3d da db da bd
       0.088421986 0.11089448 0.04633283 -0.106864646
000190 6a 3a ce bc 7f 3e fc bc e2 ac f2 3c 4b a5 1c bd
       -0.025174338 -0.03079152 0.029623453 -0.038243573
0001a0 4c 2a 57 3d 0b 44 04 be 7a ad 3c 3d 9c b9 69 3d
       0.05253057 -0.12916581 0.046063878 0.057061777
0001b0 39 0a a3 3c 11 fd 0a bd cb 84 f1 3d f3 1e 9f bd
       0.019902335 -0.03393275 0.117929064 -0.07769575
0001c0 45 e7 f0 3d aa 6a a9 bd a6 97 9e bd 0e 26 ad 3d
       0.11762861 -0.08272298 -0.077437684 0.08454524
0001d0 5f a8 d6 bd 46 80 7e bd ff b4 e4 bd e9 1d aa bd
       -0.10481333 -0.06213405 -0.11167335 -0.08306486
0001e0 d4 2b b9 3d 88 42 8e 3c 06 4c 5b bd a8 01 ce bd
       0.09041563 0.017365709 -0.0535393 -0.1005891
0001f0 08 f6 5e 3d 5b 11 10 3e 6e ec ee bd 09 e6 8e bd
       0.054433852 0.1406912 -0.11666189 -0.069774695
000200 9c df 8a 3d cf ba 01 bd 7b f1 0c 3d 3e a8 b2 bd
       0.06780931 -0.031672295 0.03440998 -0.08723496
000210 12 df 39 3c c4 ca 5e 3d ce 44 0e 3d 65 a5 f7 bd
       0.011344688 0.05439259 0.034733586 -0.120920934
000220 6c 7e 1f bc 96 b3 9e bd cc 26 0c be 52 5a ff bd
       -0.009734731 -0.07749097 -0.13686675 -0.12468399
000230 89 37 79 3d ac 85 f8 bd f6 b7 c1 3d 08 85 04 3e
       0.060843978 -0.12134871 0.09458916 0.12941372
000240 30 be b7 3c 76 d1 6c bd fd 58 b3 3d 0a 7a 0c ba
       0.022429556 -0.057816945 0.087572075 -0.00053587614
000250 25 e9 87 3c 7e d8 cc 3d ae ff b3 3d 2e 28 d1 3d
       0.016590664 0.1000223 0.087890014 0.10212742
000260 5d fc 22 3d dd 95 de 3d ca 91 0a 3a 1c 8d 19 3d
       0.039791454 0.10868428 0.00052860065 0.037488088
000270 b5 eb b7 bd 40 cb 17 3d 65 70 f2 bd 04 4d 60 3d
       -0.089805044 0.03705907 -0.11837844 0.054760948
000280 23 c3 a2 3c 61 aa c9 bd 76 f0 60 3d 81 47 d2 bd
       0.019868439 -0.0984695 0.05491682 -0.102675445
000290 c5 af b1 bb 90 eb 46 3d 4b ab 8f bd 6b d9 12 bd
       -0.0054225647 0.048564494 -0.070150934 -0.035851877
0002a0 04 0d be 3d 3f 31 c0 bd 0b 92 6d 3d 84 1f ba bd
       0.09279826 -0.09384393 0.058000606 -0.090880424
0002b0 e6 42 e3 3d 99 ff e8 bd 9f ea 3b bc a7 d7 a0 bd
       0.11096744 -0.113768764 -0.011469512 -0.078536324
0002c0 36 39 95 bd b4 d3 c2 bd 91 32 7b 3d 11 e0 d1 3d
       -0.07286303 -0.095130354 0.06132752 0.102478154
0002d0 d6 32 33 bd 9c 2f a9 bc df 75 c3 3d 33 5c fd bc
       -0.043749653 -0.020652585 0.095439665 -0.030927753
0002e0 7d 30 a9 3d 95 6c 85 bc 59 ff 6a bd 5f d1 f3 3d
       0.082612015 -0.016287128 -0.057372425 0.11905169
0002f0 db f9 94 bb 25 ac ef 3d 69 66 b8 3d 76 13 fe 3d
       -0.0045463867 0.11702756 0.09003908 0.12406056
000300 3d fd ae bc 39 4f fe 3d b9 59 b6 bd a2 a0 37 3d
       -0.021360988 0.12417454 -0.08903832 0.044830926
000310 24 83 d6 3d 60 46 68 3d 24 59 3c bb 3a b5 5b 3d
       0.10474232 0.05670774 -0.0028739655 0.053639628
000320 e0 ba dc bd ea 3a c2 3d b1 8d 19 bd c0 41 39 bd
       -0.10777831 0.09483893 -0.037488643 -0.04522872
000330 b6 27 ad bd 43 b7 a0 bd ac a4 d4 3d d3 b4 33 3d
       -0.0845484 -0.078474544 0.10382971 0.04387362
000340 6d 15 47 3d 3b e1 83 bd ec 5d 5a 3d 36 d3 d4 3d
       0.048604418 -0.06439444 0.053312227 0.10391848
000350 ce 2b 9b bd eb e3 09 3d de ff e5 bd 2c ea 12 bc
       -0.075767145 0.033664625 -0.112304434 -0.008966964
000360 78 33 1b bd 33 1a 8d bd 8a af f2 bc 5f 99 bb 3c
       -0.03789088 -0.06889763 -0.02962472 0.022900281
000370 56 ed d0 3d f2 f0 39 3d a0 5e fd 3d 15 01 ac bd
       0.10201518 0.0453958 0.12371564 -0.08398644
000380 ef 18 c4 39 4e 5b da bd bf cf 8f 3d e5 36 21 bd
       0.0003740261 -0.10661946 0.07022046 -0.039358992
000390 e2 5a bc 3d 42 7c cb bc ca 54 6f bc 09 20 b1 bd
       0.09197022 -0.024839524 -0.014607618 -0.08648688
0003a0 fa aa 17 3d f5 f3 d6 bd 49 20 c3 3c 7e 51 f2 3c
       0.03702829 -0.1049575 0.023819106 0.029579874
0003b0 95 7f be 3d 24 09 68 3c 4c 0b 1c bd 99 5b 82 bb
       0.09301678 0.014162336 -0.03809671 -0.0039782044
0003c0 40 ec d9 bd e8 07 84 3c 19 56 12 3a 9c 4a 3b bc
       -0.10640764 0.016117051 0.00055822876 -0.0114313625
0003d0 93 db da bd 13 45 e1 3d 1f b5 8f bd 17 63 68 3c
       -0.10686412 0.10999503 -0.07016968 0.014183781
0003e0 17 fc ac 3d 9a 8e 57 bb 25 5c ec 3d bd 5a ab bc
       0.0844652 -0.0032891394 0.11541013 -0.02091729
0003f0 80 84 9f bd f7 27 53 bd fe 4e 9b 3d 2c d1 81 bd
       -0.07788944 -0.051551785 0.07583426 -0.063387245

l1.proj.bias f4 [64]
000000 11 2b 3c bd 92 68 cb bd 09 75 93 3d 06 59 d3 3d
       -0.04593951 -0.099320546 0.07200057 0.10319714
000010 4a 7a d6 3d db 44 3b 3d da bb c2 bb ea 2b a1 3d
       0.104725435 0.045719963 -0.005942804 0.07869704
000020 87 7e c0 bd 34 8f 8d bd 3f c0 b9 bd 08 e6 de bc
       -0.09399133 -0.069120795 -0.09069871 -0.027209297
000030 ba 35 77 bd 8c 53 12 bb 3a ab 95 3d 4d 43 85 bd
       -0.060353972 -0.002232763 0.073080495 -0.06506977
000040 a7 ea 61 3c 30 a1 37 bd 18 4e 03 be 95 e3 b3 bd
       0.013788856 -0.044831455 -0.12822759 -0.08783642
000050 00 61 66 bd 06 5d 09 bc 03 7d b0 3d 4d 9d ad bd
       -0.05624485 -0.008383995 0.08617594 -0.08477268
000060 35 f1 45 3d a0 15 01 bd b3 84 b7 3d 1c 85 ae bb
       0.048325736 -0.031514764 0.08960857 -0.0053259265
000070 d7 a0 8b 3d e0 35 d0 3d 1b f1 c9 3c 55 31 9d 3c
       0.06817787 0.10166526 0.0246511 0.019188562
000080 d4 a5 06 3d 8a b7 d8 3c d8 b5 10 3c e1 d3 31 3d
       0.03287299 0.026454706 0.008832417 0.043414954
000090 b9 7a 6d 3d 5d 55 7e 3d 40 ca e9 3d 39 8c 2e bc
       0.057978366 0.062093128 0.11415529 -0.010653549
0000a0 37 89 4d bd 85 7e 5d bd d2 4d c0 3c 82 14 ad bd
       -0.050179686 -0.054075737 0.023474608 -0.08451177
0000b0 76 c6 21 bd ae e4 bc bd d6 18 b9 3d a3 d1 e1 bd
       -0.039495908 -0.09223305 0.0903794 -0.11026313
0000c0 1a 3b 5d bd c2 17 d4 bd e1 1c cf 3d ed 94 cc 3d
       -0.05401144 -0.10356094 0.1011293 0.09989343
0000d0 85 ad 30 3c 11 da 86 bd fb 97 18 3d 05 68 44 3d
       0.010783558 -0.065845616 0.037254315 0.047950763
0000e0 b8 24 e7 bb 45 53 b4 bd 08 06 0e 3d 05 8e 9a bd
       -0.0070539378 -0.08804945 0.03467372 -0.07546619
0000f0 9b 5d b4 bd 89 4a d6 bd fe b0 92 3d 79 4a 94 3d
       -0.08806916 -0.10463435 0.07162665 0.07240767

l3.proj.weight f4 [64, 64]
000000 95 3b 10 3c 5e 67 6d 3d a4 a6 07 bd 7b 78 bc bb
       0.008803268 0.057959907 -0.033117905 -0.005751667
000010 86 f4 38 bd fa aa af bd 8b 0e a7 3d ee 74 a3 3d
       -0.04515507 -0.08577533 0.08157071 0.07981287
000020 fb 00 8b 3d c6 96 84 bb f4 b1 da 3d 9a 56 b5 3d
       0.067872964 -0.004046294 0.10678473 0.088544086
000030 2e b3 db 3d a5 58 37 bd 6d c2 bd 3c aa d8 7a 3d
       0.10727535 -0.044762272 0.023163998 0.061241783
000040 7c e5 0c 3e ee d5 96 3d 7c 56 92 3d c9 ee eb bd
       0.13759416 0.073650226 0.07145402 -0.11520154
000050 30 ca 16 bd 53 39 07 be 71 04 f4 bc 58 d3 f6 bc
       -0.036813915 -0.13205461 -0.029787274 -0.030130073
000060 fa 86 c3 3c 9b 2f 22 bd 2b e4 da 3d 35 36 32 bd
       0.023868073 -0.03959618 0.10688051 -0.043508727
000070 d4 99 6e bc cb 06 f6 bd 4f b5 b6 3d 61 73 45 bd
       -0.014563043 -0.120130144 0.089213006 -0.048205737
000080 28 cc 5b bd 6f 6c 01 3e ce ef 20 3d 82 59 86 3c
       -0.053661495 0.1263902 0.039291196 0.016400103
000090 46 e4 bb bd 74 20 0c bd b0 0e 43 3d 32 1d 3b bd
       -0.09174399 -0.034210637 0.04762143 -0.04568214
0000a0 4f f2 f8 3d de eb 2e bd 51 83 62 bb c7 70 b3 3d
       0.12155592 -0.04270541 -0.0034563134 0.08761745
0000b0 45 ba 84 bd 63 ce 57 3d bd a0 5d bd 9d 80 2c bd
       -0.064808406 0.05268706 -0.05410837 -0.042114843
0000c0 f1 e6 a3 3b 5f fd 67 3c ac a8 c2 bd 55 0e 28 bd
       0.0050018956 0.0141595295 -0.09504828 -0.041029293
0000d0 28 c5 b4 3d be 73 02 3e 5f 1e 88 3d 71 2d 63 3d
       0.08826667 0.12739465 0.06646418 0.05546326
0000e0 11 9a 95 bd db fb fd 3c bb e9 30 bb 77 c2 80 3d
       -0.073047765 0.031003883 -0.0026994783 0.06287091
0000f0 d8 5f 20 bd 55 fd e8 3d 36 78 f0 bd 1c c7 d2 3d
       -0.039153904 0.11376444 -0.117416784 0.10291883
000100 b7 16 94 3c a4 6b d5 bd 0a 97 ae bd ee cf a2 bd
       0.018077238 -0.104209214 -0.08524902 -0.07949816
000110 50 c7 d5 bd 3b c1 20 bd de 05 43 bd 44 8e 67 bd
       -0.104384065 -0.03924678 -0.047613017 -0.05653216
000120 ac 63 42 3c a8 b1 58 3d fa d0 88 bc fa f9 17 bd
       0.011864584 0.0529038 -0.01670121 -0.03710363
000130 ac c6 1c bd 48 00 dc 3d a9 3b 0a bd 7d af 22 bd
       -0.038275406 0.10742241 -0.033748303 -0.03971814
000140 2c 8f b8 3d 97 8e d2 3d be 29 9d 3d 51 95 82 3d
       0.09011683 0.10281103 0.07673977 0.06376136
000150 5c 22 88 3d 2d bb 87 bd 8b f1 c5 3d d3 c5 b0 3d
       0.066471785 -0.06627498 0.09665211 0.08631482
000160 0a 7c d7 bd 52 b7 b5 bc 3d 8e d4 bd 95 3b a6 bd
       -0.105217054 -0.02218214 -0.10378692 -0.08116833
000170 9a ed db bd ec 0a 38 bd 9f 55 ba bd 51 49 ab 3d
       -0.10738678 -0.04493229 -0.09098362 0.08363593
000180 1c b2 e6 bd 0c 14 bd 3d 24 26 e3 3d ff f6 2d bc
       -0.112644404 0.09232339 0.11091259 -0.0106179705
000190 73 16 03 3d 75 85 7b bd c7 06 ef bd 28 a8 88 bd
       0.03200383 -0.06140657 -0.116712146 -0.06672698
0001a0 6e 1a c7 bc d6 e5 c5 3d b6 c0 08 be c9 53 04 3e
       -0.024304595 0.09662978 -0.13354763 0.12922587
0001b0 f2 65 df 3d e3 df 81 3d 5e 45 b1 3d 28 90 c3 3c
       0.109081164 0.06341531 0.08655809 0.02387245
0001c0 4c e7 c2 bd 4f 1f c2 bd 2e 3e 9a bd 48 10 3f 3d
       -0.09516773 -0.09478628 -0.07531391 0.046646386
0001d0 93 8c a9 3c 1e 52 92 bd 27 da e2 bd 23 47 af 3c
       0.020696914 -0.07144569 -0.110767655 0.021396225
0001e0 11 7f 1b bb 4a 92 6a bd 2b 6c af 3c a2 5c 19 bc
       -0.002372686 -0.05726842 0.021413883 -0.009360464
0001f0 8f c0 f9 3c ad 8b a8 3d 7e fc 11 bd 19 ce df 3d
       0.030487327 0.08229766 -0.035641186 0.10927982
000200 d2 14 de bc dd 33 68 bc 7f 4d 87 bc 46 1f 87 3d
       -0.027109537 -0.014172521 -0.016516445 0.06597762
000210 8a dd c3 bc 8c b0 eb bc a9 ab b4 bd 41 a2 d6 bc
       -0.023909349 -0.028770708 -0.08821804 -0.026200416
000220 89 e1 a5 bd 03 15 33 bd 7c 4e 1b bd ad 48 db 3c
       -0.08099658 -0.04372121 -0.037916645 0.026768053
000230 2b e2 ce 3d 68 74 86 3d 9f 39 fa 3b ca ab a9 3d
       0.10101732 0.065651715 0.0076362635 0.08284719
000240 a0 b5 51 bc 87 9e 25 bd 4c 30 86 3d c0 5e 29 3d
       -0.01279965 -0.040434387 0.06552181 0.041350126
000250 94 d2 18 bd c3 ed b7 bd 20 3c 7d bd 83 58 ba 3d
       -0.037310198 -0.08980896 -0.061824918 0.090989135
000260 97 00 ac 3d 46 1e cd 3d e3 d0 81 bc 9f ad 62 bd
       0.0839855 0.1001554 -0.015846675 -0.05534136
000270 55 8a 92 bd a6 60 7d bd cb b3 cb 3d 44 44 36 3d
       -0.07155291 -0.06185975 0.09946402 0.044498697
000280 cb 17 bc 3c b8 c1 80 bd 50 9a ec 3d 28 1b df bd
       0.022960564 -0.06286949 0.1155287 -0.108938515
000290 2d b8 69 3d de c0 2b 3d 58 0c 20 3d 4c 09 05 bd
       0.05706041 0.04193198 0.039074272 -0.03247957
0002a0 e7 31 ea 3d 8d cc 99 3d b5 cc c9 bd 5d 8b 9f bd
       0.11435299 0.07509718 -0.09853498 -0.07790253
0002b0 21 f7 95 bd 01 c8 a4 bd 89 b5 64 3d 8b de 48 3d
       -0.07322527 -0.0804596 0.055837188 0.04904036
0002c0 96 ed 04 be 61 41 8e bd 17 cc 78 3d ab 63 05 be
       -0.12981257 -0.06946064 0.06074151 -0.13026302
0002d0 4e b1 17 bd bc 2a 5b bd 4a 69 3f bd b1 7e d4 3c
       -0.037034325 -0.05350755 -0.04673127 0.025939317
0002e0 af d9 4a bd 1a 62 86 3d c1 5a 69 bd 41 5f ab 3d
       -0.049524006 0.0656168 -0.056971315 0.083677776
0002f0 3f da 80 3d 31 b5 a3 3c 30 7f cf 3c 50 15 f2 3c
       0.06291627 0.01998386 0.025329202 0.029551178
000300 3e 62 32 3d 71 15 bc 3d 7b 76 2c 3d a2 cc 57 3c
       0.043550722 0.09183777 0.04210518 0.013171347
000310 21 e4 fb 3d f1 47 fc bd 09 14 a9 bd 4f 38 f3 bc
       0.122993715 -0.12318409 -0.082557745 -0.029689936
000320 75 6f 3a bd 1d 0d ac 3a 69 23 98 bd 5f c1 89 bd
       -0.04551645 0.0013126467 -0.07428629 -0.06726336
000330 c9 f2 23 bc a1 d3 f8 3c e2 b1 9c bd 06 f6 95 bd
       -0.010006615 0.03037435 -0.07651116 -0.07322316
000340 52 73 cc 3d 32 69 d7 bd a9 86 45 bc f3 d1 c0 3d
       0.09982933 -0.10518111 -0.012056031 0.09415045
000350 b4 65 b1 bd d0 c0 81 3c 1b 4a 07 be 9f f4 94 3d
       -0.086619765 0.01583901 -0.13211863 0.0727322
000360 b6 da 18 bc 2d 9a 46 3d 09 51 ad 3d 26 6f 07 bd
       -0.0093294885 0.048486877 0.08462722 -0.033064984
000370 65 11 14 bd 7c 70 2e bd 29 b9 07 3e 14 bc 6d bd
       -0.0361494 -0.042587742 0.13254227 -0.058040693
000380 bf 34 56 3d 29 00 8c 3c 6a 5d d4 3c 38 52 a2 3a
       0.052296396 0.01708992 0.02592345 0.0012384122
000390 1f da 04 bd f9 ea a8 3d 92 bf e1 bc 57 94 25 bd
       -0.03243458 0.082479425 -0.027557168 -0.04042467
0003a0 d9 ed 03 be f1 c2 24 3d 3d e4 e3 bd aa ed bd 3d
       -0.128837 0.040224973 -0.11127517 0.092738464
0003b0 16 5a 8f bd ed 68 a0 bd 76 0c 7e bd 10 72 e7 bd
       -0.069996044 -0.07832513 -0.062023602 -0.113010526
0003c0 5d 92 88 3d cb 8a 2f 3d f6 85 a2 3d 4c 88 f0 bb
       0.066685416 0.042856973 0.07935707 -0.0073404666
0003d0 71 e8 11 bc 0e 24 d6 3d 11 d1 c5 bc 6d db a5 3d
       -0.008905516 0.10456096 -0.024147542 0.08098493
0003e0 97 e5 b8 3d 35 e1 94 bd 40 91 2d 3c 45 ba 0a 3c
       0.09028166 -0.07269517 0.010593712 0.008467262
0003f0 08 f6 4f bb 68 ca c1 bc 64 31 1e 3d 3a 21 e4 bd
       -0.003173234 -0.023656085 0.03862132 -0.1113915

l3.proj.bias f4 [64]
000000 89 e0 3f 3d 13 0a ce bd 73 7a 41 bc 57 be bd 3c
       0.046844993 -0.10060515 -0.011808979 0.02316205
000010 3a c6 dc 3d ca c5 a9 3d b7 4f 8c 3c 66 f1 86 3d
       0.10779996 0.082896784 0.017127855 0.06589012
000020 5f 73 a0 bd 25 51 02 3d 96 9c 87 bc c1 e9 ea bd
       -0.07834505 0.031815667 -0.016554158 -0.11470366
000030 19 da c1 3d ff ec 5d 3d 67 79 db 3d 71 5c ee bd
       0.09465427 0.054181095 0.10716515 -0.116387255
000040 c0 c3 ed 3d ee 7c fd bd 67 7c 77 bd 60 0e 07 3e
       0.11609602 -0.12377344 -0.060421374 0.13189077
000050 31 6d d0 bd 3b 79 a6 3d b8 c0 75 3d 50 15 dd 3d
       -0.101770766 0.081285916 0.059998244 0.10795081
000060 a3 a6 5d bd ff 70 05 3e 74 16 9d 3d 55 f3 21 3c
       -0.054113995 0.13031386 0.07670298 0.009884675
000070 52 3e 13 3d 9a af d3 bd 19 f8 0c bd 80 f6 91 3d
       0.035948105 -0.10336228 -0.034416292 0.07127094
000080 e7 7e 0b 3d c5 09 c7 bd 8e d3 c5 3d 0b 8b d4 bd
       0.03405657 -0.0971866 0.096594915 -0.10378083
000090 a3 cb bc 3b 72 f7 a2 bd 6d e0 e2 3a 1e c0 f7 3d
       0.00576158 -0.07957353 0.0017309316 0.1209719
0000a0 f6 da 94 3d 90 2e 1a 3d ae 2c e9 bd 6a d7 8e 3d
       0.07268326 0.03764206 -0.11385475 0.06974681
0000b0 ed f8 89 3c 74 cd e2 3c 7a f5 86 3d 16 a9 ae bc
       0.01684233 0.027685858 0.0658979 -0.02132086
0000c0 e4 47 e6 bd 9d cc 40 bc 94 cc 1d 3c 1c a2 a6 3d
       -0.11244181 -0.011767534 0.009631295 0.08136389
0000d0 d1 17 06 3c 26 fa 64 3c f9 e0 70 bc 8d ec da 3d
       0.008184389 0.013975656 -0.014702075 0.1068965
0000e0 ca fa 09 3d 4d 01 6e bd 8e 20 82 bd d7 7f 14 3d
       0.033686437 -0.05810671 -0.063538656 0.03625473
0000f0 cc e2 2c bd 4a 39 38 bd 92 17 db bd 9f 8b 88 bd
       -0.042208478 -0.04497651 -0.10697855 -0.066672556

l2.to_qkv.weight f4 [192, 64]
000000 51 20 8f 3d 35 ba 4b bd 16 7e 72 3d 32 6f cd bd
       0.06988586 -0.049738128 0.059202276 -0.100309744
000010 cb d5 74 ba af 8c c3 3b 36 10 4c bd d4 a5 0d 3b
       -0.0009339719 0.0059676985 -0.049820147 0.0021613734
000020 98 f2 9e 3d e5 47 93 3c 91 24 36 bd 7e 1c 9b bc
       0.07761115 0.017978618 -0.044468466 -0.018934485
000030 3b 90 a8 3d c5 aa 99 3d 9b 53 f0 bc 93 30 2b 3d
       0.08230635 0.07503275 -0.029336741 0.04179437
000040 a2 35 dc bd 2c 34 b7 bc f7 83 f2 3b 90 be 32 bb
       -0.10752417 -0.022363745 0.0074009853 -0.0027274229
000050 50 aa af bd b7 75 09 be 43 0e 68 3d 74 c6 93 bc
       -0.085774064 -0.13423811 0.056654226 -0.018038966
000060 12 5c 99 bd 28 f9 fa 3d 77 55 f5 3d 99 f0 55 3d
       -0.07488264 0.12254554 0.11979192 0.052231405
000070 fe 3c 10 bd 9b 3c 93 3d 1b 42 db bd 3e fd 87 bd
       -0.035214417 0.07189294 -0.10705968 -0.06640099
000080 16 ba 83 3c 9b 35 ac bd 51 67 7b 3d fe 2a 7e bd
       0.016079944 -0.08408662 0.061377827 -0.06205272
000090 f2 a1 e8 3d 35 86 93 3d cc 9d 0c bc c2 75 25 bd
       0.113590136 0.07203332 -0.008582544 -0.040395506
0000a0 92 c3 f9 bc 14 b5 15 bd 89 d5 0a be 3b f7 ee 3d
       -0.030488763 -0.036549643 -0.1355802 0.11668249
0000b0 01 10 a9 bd 45 ad 5d bd a7 03 91 bd d1 cd 36 3d
       -0.08255006 -0.05412032 -0.07080775 0.044629876
0000c0 a7 30 89 3d 90 e8 73 3d ed c1 01 be 57 4d 91 3d
       0.06698733 0.05954796 -0.12671633 0.070948295
0000d0 b0 e5 06 3d ef 55 1a bd 51 df 2c 3d f9 80 fa bd
       0.03293389 -0.03767961 0.04220516 -0.12231631
0000e0 b2 64 1f bd 34 33 c0 3d 80 40 98 bd 1d 0d c3 bb
       -0.03891439 0.09384766 -0.074341774 -0.005952491
0000f0 86 ac 88 bd b9 20 ba 3d 83 6a 97 bd e5 24 2b 3d
       -0.06673531 0.090882726 -0.073933624 0.041783232
000100 86 6d 5b bc 70 60 d9 3d 84 36 94 3d a7 d9 46 3d
       -0.013392812 0.10614097 0.072369605 0.048547413
000110 8b c8 01 3e 20 c5 dc 3d f2 ea 21 3d e7 c9 02 be
       0.12674157 0.10779786 0.039530702 -0.12772332
000120 cc 31 92 bd 91 0f e4 bd 07 1a cb 3c ac 22 59 bd
       -0.07138404 -0.111357816 0.024792684 -0.05301158
000130 58 7f 78 bd 03 d7 14 3d 43 96 a4 bd 64 6f dd 3d
       -0.06066832 0.036337864 -0.08036473 0.10812262
000140 37 8d 11 3e e1 20 63 3c 9b 4a ae bd 3c 47 d3 bd
       0.14214025 0.013862819 -0.085103236 -0.10316321
000150 58 ed a8 3d 73 bc 5d bd 3d bd b5 bd 22 1d 33 bc
       0.08248395 -0.054134797 -0.08873985 -0.010932239
000160 5d fd e6 3d 43 84 da bc 2c ef be bd dc e2 47 3d
       0.11278794 -0.026674395 -0.09322962 0.048800334
000170 0b 43 3a 3c 65 e8 c0 bd f8 00 cf bd b4 65 dc 3c
       0.011368523 -0.09419326 -0.10107607 0.026903965
000180 7f 7d e2 3d 46 72 1a 3b 78 42 46 bc 97 bd 03 3e
       0.11059093 0.0023566647 -0.012100808 0.12865292
000190 6a 1a ff 3c 02 5b 92 bc b3 f5 db bd 99 67 18 bd
       0.031140525 -0.017865662 -0.10740223 -0.037208173
0001a0 bf a6 7d bd 77 8c 98 bd d7 2d 2e bd d5 9d a9 3d
       -0.0619266 -0.074486665 -0.042524185 0.08282057
0001b0 d9 eb 92 bd 87 74 89 bd 37 34 da 3c 50 c8 ae 3c
       -0.071738906 -0.06711679 0.026636226 0.02133575
0001c0 e6 9b a1 bd ac 4c d5 3d b6 a0 81 3c 37 1e f1 bc
       -0.078910634 0.104150146 0.015823703 -0.029433353
0001d0 55 19 80 bd 2f 19 c2 bd 15 94 34 bd a7 05 b7 3d
       -0.06254832 -0.0947746 -0.044086535 0.08936625
0001e0 e0 cd 97 3d ec 8b 83 3d 35 78 d8 3c f9 34 e1 bd
       0.074123144 0.06423172 0.026424507 -0.10996432
0001f0 f3 1c a7 bd 6f 9a 62 bc 4f d1 e0 bb bc 07 24 bd
       -0.081598185 -0.013830765 -0.006860889 -0.04004644
000200 d1 96 96 bd cd b8 9b bd d0 f1 2b bc dd 44 36 bd
       -0.07352985 -0.07603607 -0.010494664 -0.044499267
000210 46 a0 54 bc 9d 7a 4f 3d d5 04 cf 3b 5c b5 93 bb
       -0.012977665 0.050654043 0.0063177147 -0.0045077037
000220 d8 15 c2 bd 4d fc 0d be 66 ec ab bd a2 08 51 3d
       -0.094768226 -0.13865776 -0.08394699 0.051033624
000230 f1 45 12 be 13 de e2 3c ce f7 a5 3d c6 b8 0c bd
       -0.14284493 0.027693784 0.081039056 -0.0343559
000240 ea a0 9a 3d ec c0 84 3d 29 4c 83 3d d0 21 47 3c
       0.07550223 0.064821094 0.06411011 0.012154058
000250 43 9f f7 3d 4f d9 43 bd 29 a8 a8 3d 2c 62 7a 3c
       0.12090924 -0.047814663 0.08235199 0.015282195
000260 78 ba 0d 3e ce 3d 49 3d fc 59 ad bd 61 e1 dc 3d
       0.13840663 0.049131207 -0.08464429 0.10785175
000270 ec 4c 3e bb 27 28 c2 3d 65 e7 b2 3d b0 a1 c2 bd
       -0.0029037548 0.09480315 0.08735541 -0.09503496
000280 b4 60 02 39 b6 a4 bf bd 41 04 bb 3c f5 55 80 3d
       0.00012433791 -0.09357588 0.022829177 0.06266395
000290 95 51 27 3d 0d d5 ca 3c c8 62 2d bd f5 8d e8 3d
       0.040849287 0.024759794 -0.042330533 0.11355201
0002a0 b0 48 e2 3d 43 5c ac 3d c6 1e 13 3d fa e8 a7 3d
       0.1104902 0.08416035 0.03591802 0.08198734
0002b0 f9 66 ad 3d bb 70 3d 3d 86 85 f7 bc 16 b5 c4 3d
       0.08466906 0.046250086 -0.030215036 0.09604852
0002c0 2d 67 d3 bd 57 dd 9a 3c d0 b7 d9 3d 4d 18 b8 bc
       -0.103224136 0.018904371 0.106307626 -0.022472525
0002d0 c8 51 33 bd ed e1 e1 3d c6 02 fa 3d d0 0d be bd
       -0.043779165 0.1102942 0.1220756 -0.09279978
0002e0 30 81 33 3d af 2e 1f 3d 00 69 0b 3a 42 3f d0 3d
       0.043824375 0.03886288 0.00053180754 0.101683155
0002f0 62 bb ae bd d7 cf a3 bd a0 0f d4 3d 91 39 0a 3e
       -0.08531834 -0.07998627 0.10354543 0.13498522
000300 08 95 65 3d 97 ff f1 bd c6 90 f6 3d 30 77 c6 3d
       0.05605033 -0.11816328 0.12039332 0.09690702
000310 b8 3e df 3c a1 14 de 3c 7c f5 4a 3d 00 4e d5 bd
       0.027251586 0.027109446 0.04955052 -0.10415268
000320 7d 0d 92 3d 76 b5 ef bd 5a 7d 82 3c ea 27 01 bd
       0.07131479 -0.11704533 0.015928913 -0.031532206
000330 9a 01 d5 3c 4b 20 d7 3d 38 47 b0 bd 70 dd 27 bd
       0.02600174 0.10504206 -0.08607334 -0.040982664
000340 66 17 9d bd a8 d2 aa 3d 05 94 3f 3d 17 b6 e5 3c
       -0.076704785 0.08340961 0.04677202 0.028040929
000350 a2 32 f1 bc 77 e1 9e 3d 1b 72 05 be d5 af 42 3d
       -0.029443089 0.07757848 -0.13031809 0.047530968
000360 cd 60 97 bd ba d4 2e 3d 07 d2 d0 3c dd 41 46 3c
       -0.0739151 0.04268334 0.025490774 0.012100664
000370 e9 e7 5b 3c 20 be ce 3d f4 95 3e 3d 52 39 ad bc
       0.013421991 0.10094857 0.046529725 -0.021145497
000380 4c bc e3 3d 66 f9 29 3b ce 9e 36 bd e7 07 ec 3d
       0.11119899 0.0025936007 -0.04458504 0.11524945
000390 40 37 9e 3d a2 15 cd 3d a5 43 cb 3d b2 f8 d0 bd
       0.07725382 0.10013892 0.099250115 -0.10203685
0003a0 9c 99 4b bd f3 25 9e 3d 35 bd da 3d f8 0e d5 bd
       -0.04970704 0.07722082 0.106806196 -0.10403246
0003b0 03 be a4 bd 5f 62 91 3d fd ac ba 3d 46 7f de bd
       -0.08044054 0.07098841 0.09115026 -0.10864119
0003c0 fc 86 eb bc 0f c0 eb 3c db 39 a6 3d 55 49 a7 bd
       -0.028750889 0.028778104 0.08116504 -0.08168284
0003d0 0e 04 84 bd e0 23 eb 3c 41 de 8e 3d 8b d3 87 bc
       -0.06446086 0.02870363 0.06975985 -0.016580364
0003e0 a4 e9 15 bb 59 39 6e 3d 14 93 f7 3b c5 ac de 3d
       -0.0022874856 0.05816016 0.007555375 0.10872797
0003f0 f5 27 95 3c 43 78 81 bb 65 d6 47 bc 81 d4 0f 3e
       0.01820753 -0.003951104 -0.012197112 0.14045908

l2.to_out.weight f4 [64, 64]
000000 2f 9c ae bb 52 04 db 3d c5 df fc 3d 89 c4 21 3d
       -0.005328677 0.106941834 0.12347368 0.03949407
000010 0b 21 62 ba f8 4f b5 bd 73 46 54 bd 4e 50 7c bd
       -0.00086261396 -0.088531435 -0.051824998 -0.061600022
000020 1d 54 be bd fa df f2 3d 91 84 af 3d 48 0a af bd
       -0.09293387 0.118591264 0.08570207 -0.08546883
000030 75 4d 94 3d da 4e af bd af 8d 26 bd a2 d1 b8 3d
       0.07241336 -0.085599616 -0.040662464 0.09024359
000040 65 89 f6 3d 6f 0d 49 bd de ab dc 3d 2e 65 0a 3d
       0.12037925 -0.049085077 0.107749686 0.0337879
000050 d8 80 70 3d 02 d7 48 3c e3 7a 72 bd 1b a2 dd bd
       0.058716625 0.012258293 -0.059199225 -0.10821935
000060 45 72 a1 bd 58 16 8d bc de 4b f2 3d 5e e7 be 3d
       -0.07883123 -0.017222568 0.11830877 0.093214735
000070 e5 7d 85 bd 46 36 d1 3c 48 ad 80 bd d8 1d 23 bd
       -0.06518153 0.025538575 -0.06283051 -0.039823383
000080 1c 95 ce bb 48 4c 86 3d 19 4a 72 bd d9 bd 9d bc
       -0.0063043963 0.06557518 -0.059152696 -0.019255565
000090 b3 53 89 3d 0a 7a da 3b 4f 2f e8 bc d7 95 6f bc
       0.067054175 0.00666738 -0.028342871 -0.014623127
0000a0 7b 9e ea 3d ad d8 22 3d 0f 7b f1 3d 82 24 ad bc
       0.11456009 0.03975742 0.1179105 -0.021135572
0000b0 d1 5b 78 bd e1 01 97 bd 06 d9 81 bc 91 07 a9 3c
       -0.060634438 -0.07373405 -0.015850555 0.02063349
0000c0 a5 b5 71 3d ee f1 96 bd 74 e7 0b bd 56 e3 5e bd
       0.05901112 -0.07370363 -0.034156278 -0.054416023
0000d0 5a db 39 3b 30 2e d7 bc 0b 9d a3 3d d2 27 b2 bd
       0.0028359503 -0.026267141 0.07988938 -0.08699001
0000e0 6e 0b a8 bd a2 cf f1 bb 9b 9b 1a 3c b3 71 ba bd
       -0.08205305 -0.007379488 0.009436513 -0.09103718
0000f0 29 25 92 bd 0d 8c 9a 3d 74 35 4d 3c 4f 5f c0 3d
       -0.07135994 0.07546244 0.012524951 0.09393179
000100 9f b1 db 3b f3 57 e9 bd ed 73 19 bd aa d3 cf bd
       0.0067045237 -0.11393728 -0.03746407 -0.101477936
000110 82 24 42 3d 17 84 6c bd d4 44 31 3d ce 98 b9 bb
       0.047398098 -0.05774316 0.04327853 -0.0056639677
000120 aa 33 0b be 29 18 f2 3c e8 87 05 3b 0f cd 3c 3d
       -0.13593927 0.029552536 0.0020375196 0.046093997
000130 11 19 70 bd b3 16 14 bd b7 c0 59 3d 70 1e 32 3d
       -0.058617655 -0.03615446 0.053162303 0.04348606
000140 5a 71 13 3d 5e 0c d3 3d 2a 9c ab 3d bd d4 fc 3a
       0.035996772 0.10305093 0.08379395 0.0019289475
000150 c3 a9 cd 3c c8 10 f7 bb 5b de b2 bd 26 02 c7 bd
       0.025105363 -0.0075398423 -0.08733817 -0.09717207
000160 0e 01 a9 bd 8a 5d 12 bd c8 44 b2 3d b8 ec 81 bd
       -0.08252154 -0.035733737 0.08704525 -0.06343979
000170 46 cf 26 bd 6d e9 ca 3d 45 a2 b0 3c 1f a8 ac bd
       -0.040725015 0.09907804 0.021561751 -0.08430504
000180 e0 af 92 bd 42 3b 20 3c c3 51 b9 3d 3f 77 9a bd
       -0.07162452 0.009779753 0.09048798 -0.07542276
000190 14 80 21 bc 58 27 4b bb 1c 4e 45 bd 87 a3 33 bd
       -0.009857196 -0.0030998792 -0.048170194 -0.043857124
0001a0 2e 6b c0 bd 0b 4b a1 bd 60 c6 e9 3d 34 ac e9 3d
       -0.09395443 -0.078756414 0.1141479 0.11409798
0001b0 75 4a 1b bd ab 75 7c 3c bf 6c 80 bc 6a 6b 60 bd
       -0.037912805 0.015408914 -0.015676854 -0.054789938
0001c0 88 49 39 bc f9 0f 33 3d 23 48 b8 3d bf 23 6d 3d
       -0.011309035 0.043716405 0.08998134 0.05789542
0001d0 03 d7 c8 bc c8 b1 15 bc 51 74 50 3d ad 48 86 3d
       -0.024516588 -0.009136625 0.050892178 0.065568306
0001e0 26 06 88 bd 69 9c 9d bd 7c db 1b 3d 81 36 9a bd
       -0.06641798 -0.076958485 0.038051113 -0.07529927
0001f0 07 c9 0f bb 9a 75 a6 bd bc 26 b4 bd ce e2 b4 3c
       -0.002193989 -0.081278995 -0.087964505 0.022080805
000200 bb ae a2 bd 59 2d 5f bd 4e 45 95 3c b8 97 66 3d
       -0.079434834 -0.054486606 0.018221524 0.056297034
000210 7e 09 3c bd a3 36 8b 3d 4d 58 ac bc 6d 96 c2 bd
       -0.04590749 0.067975305 -0.021038199 -0.09501348
000220 24 2a 37 bd b4 fc 04 bd 86 a6 9f bd 41 03 89 3d
       -0.044717923 -0.03246756 -0.07795434 0.06690074
000230 af 62 82 bd a4 cf 4c bd 8c 4d 74 3d 33 7c b9 bd
       -0.06366479 -0.05000271 0.059644267 -0.09056892
000240 9e af a8 bd 68 45 48 3d 16 76 55 bd 05 21 d1 3d
       -0.08236621 0.048894316 -0.05211457 0.10211376
000250 53 22 8b 3d 80 ab 04 3d 17 7c eb 3b 11 3d af bd
       0.06793656 0.032390118 0.0071864235 -0.08556569
000260 86 5c 04 bd ea 12 df 3d 24 58 ab b9 69 9d e9 3c
       -0.0323148 0.108922794 -0.00032681332 0.028517442
000270 03 aa 0f bc e6 c9 1e 3d 3e b9 3e bc e8 ef 48 3d
       -0.008768561 0.038766764 -0.011640845 0.049056917
000280 62 ff 5b 3d 28 55 aa bc 2e 59 e4 3d 46 37 f0 bd
       0.05371035 -0.020792559 0.11149822 -0.117292926
000290 a2 8c b1 bd c9 1e a7 3d e7 e2 c0 3d 87 90 b2 bd
       -0.08669402 0.08160169 0.09418278 -0.08718973
0002a0 e6 a3 cc 3d 5d c3 94 3c 74 d5 65 bd e1 47 77 bb
       0.09992199 0.018159563 -0.056111768 -0.0037732052
0002b0 32 10 e0 3c b6 66 4b 3d 78 8b 02 3d 4b 1c 37 bd
       0.027351473 0.0496585 0.03187129 -0.044704717
0002c0 7c 48 54 3d 37 40 92 bd ef bb 52 bd f0 9b 8a 3d
       0.05182694 -0.07141154 -0.05144876 0.06768024
0002d0 cc 7f 6a 3d 61 f6 c8 3d b7 18 bd bd 5e 69 d1 bd
       0.057250783 0.09812618 -0.092332296 -0.10225175
0002e0 62 d9 b4 3d b3 45 c2 3b 15 ba 3d bd 96 c2 27 3d
       0.08830525 0.005928719 -0.04632004 0.040957056
0002f0 43 26 bc 3d 9e 4d eb 3d 15 ea 71 bd f3 8e e6 3d
       0.09186985 0.11489414 -0.05906113 0.11257734
000300 31 b5 cc bc aa b8 12 3d 32 64 29 bd c6 08 20 bd
       -0.024988743 0.03582064 -0.04135532 -0.039070867
000310 00 7f f7 bc 71 95 21 bd 82 6d 60 bd de 8a ba bd
       -0.030211926 -0.03944916 -0.054791935 -0.09108518
000320 35 ea 87 bd a1 15 96 3d be fd d5 3d 5f 8f 88 bd
       -0.06636468 0.07328344 0.10448788 -0.06667971
000330 d2 ac 9d 3d cb d3 d9 bd 18 b8 9f 3d e4 f9 bd bd
       0.076989785 -0.106360994 0.07798785 -0.092761785
000340 28 2f 35 3d 53 d1 4e ba 8e 84 e1 3d d8 7c 20 3d
       0.044234425 -0.0007889468 0.11011611 0.03918156
000350 2a d3 54 3b 2f 7f 85 3c d9 53 4f bd e4 94 e0 3b
       0.0032474496 0.016295997 -0.050617073 0.0068536866
000360 63 92 95 3d 4d b8 74 bd 86 9a b7 bc e5 97 c5 3d
       0.07303312 -0.059746075 -0.02241255 0.09648112
000370 97 27 bd 3d de 11 c4 bc ff 8b 23 3d df 58 0b 3d
       0.09236067 -0.023934301 0.039928433 0.0340203
000380 6e 79 37 3d 6c 34 c2 3d 3e 68 e9 3d a0 84 d4 3b
       0.04479354 0.09482655 0.11396836 0.0064855367
000390 27 20 a8 bd 91 b7 78 ba 49 18 38 3d d6 95 08 bd
       -0.082092576 -0.0009487803 0.044945035 -0.03334602
0003a0 fc ce fd 3c fd 6b 84 bd 70 c4 18 3d cb f8 f2 bc
       0.030982487 -0.0646591 0.037296712 -0.02965965
0003b0 04 8b a5 3d da ec bb bc 4f 38 85 3b de c1 99 bd
       0.08083156 -0.022940088 0.0040655504 -0.0750768
0003c0 3a 34 be 3d 1a 66 96 bd 88 8a 80 3d 5f 13 07 3d
       0.09287305 -0.07343693 0.06276423 0.032977458
0003d0 c4 64 e7 3c a6 94 d6 bd 70 5c 49 3c 33 69 c5 3d
       0.028246291 -0.10477571 0.012290105 0.09639206
0003e0 2e f5 2a 3c 48 48 4f 3d 1e 24 d5 3d bd 55 84 bd
       0.010434432 0.050606042 0.104072794 -0.06461666
0003f0 84 47 0b bc 14 58 77 bd 8e a6 95 bd 65 27 6e 3d
       -0.008500937 -0.060386732 -0.073071584 0.05814304
