src/Poli/data/model_grf.pth (torch, 207772 bytes, 19 tensors)

embedding.weight f4 [64, 3]
-0.02498591 0.047905713 -0.095609665 -0.37617314 -0.46239322 -0.41401067 0.021664292 0.2023214
-0.5306829 0.31471464 -0.16285206 0.47709954 0.2541735 -0.05853529 0.43012306 -0.0048078788
-0.12387462 -0.48535696 -0.3637503 0.45845443 0.37501612 0.046645034 -0.40920275 -0.20825015
-0.1351394 0.52834576 0.4913133 0.25037703 0.30139977 0.011808278 0.59636134 0.34857833
-0.1999048 -0.2485978 -0.50062335 0.5162784 0.3427231 0.5009077 0.22444063 0.42186254
-0.4116224 -0.16935208 -0.08095487 -0.34923318 0.43859783 -0.38633746 -0.021328613 -0.3429145
-0.21221833 -0.12530643 0.29163346 0.44999114 -0.036457766 -0.5097614 -0.22647691 0.076370575
-0.55552626 -0.4233799 -0.53476554 0.35425258 0.27393818 -0.3492708 -0.2335457 0.0072833044
0.36004007 0.20987923 0.348768 0.35932958 -0.4450725 -0.40429595 0.24033497 0.4589583
0.5717308 -0.4574899 0.20107897 -0.32052588 0.37603557 -0.37975502 -0.2625669 0.41694173
0.0038107638 0.03501082 0.39915025 -0.072720796 -0.5279846 -0.5375225 0.5412045 0.41201746
0.29859155 -0.17950058 0.2581257 -0.33272555 -0.12242189 -0.53876245 0.14658351 0.06981075
0.01950004 -0.5316606 0.29233494 -0.38892603 0.4000901 0.07856458 -0.0058688214 0.03475119
-0.12947245 -0.39347768 -0.47493756 -0.4576672 -0.3124138 -0.38694203 -0.14262702 0.52536374
-0.3799642 0.26042825 0.3286066 0.06468715 0.018842023 0.28542736 -0.2724043 -0.021630617
-0.118051425 0.54476345 -0.40968046 -0.31012368 0.19579679 -0.2722013 -0.1296507 0.2522427
-0.27515668 -0.29435876 -0.00041851337 -0.2444342 0.32204098 -0.08681082 -0.17375182 0.40737855
-0.30712986 0.57627857 -0.32533488 -0.15476905 0.12048008 0.110618934 0.13968274 -0.07096534
0.5312608 -0.018852957 -0.21752243 -0.111335 0.5162445 -0.018689085 0.0122914985 -0.14609672
0.267044 0.14126079 -0.2835925 -0.31454125 -0.2967233 -0.48452327 -0.58787125 -0.49627778
-0.17381184 -0.44675907 -0.26453125 0.44782165 0.53986645 -0.19760296 -0.3602451 -0.14618187
0.5147892 0.3928023 0.13344821 0.20415172 0.38364846 -0.4884135 -0.28939027 0.1613734
-0.061313834 -0.29879904 0.2924814 -0.21356197 -0.0019452585 0.19237359 0.1052757 -0.5255989
0.47326496 0.047914837 0.19667329 -0.57166636 0.049110457 0.45814112 0.0421567 0.021993374
00000000: 40af ccbc c838 443d 00cf c3bd c499 c0be
00000010: cebe ecbe 35f9 d3be 5079 b13c 572d 4f3e
00000020: d6da 07bf 4722 a13e b1c2 26be 6446 f43e
00000030: 0723 823e b3c2 6fbd 1739 dc3e 698b 9dbb
00000040: fab1 fdbd b580 f8be 7b3d babe 8aba ea3e
00000050: 1d02 c03e dd0e 3f3d 0683 d1be 873f 55be
00000060: fc61 0abe ab41 073f 6b8d fb3e 6b31 803e
00000070: 1251 9a3e 8277 413c 23ab 183f dc78 b23e
00000080: d8b3 4cbe 6c90 7ebe da28 00bf d22a 043f
00000090: 6779 af3e 7d3b 003f c4d3 653e 5efe d73e
000000a0: 2cc0 d2be a26a 2dbe abcb a5bd b1ce b2be
000000b0: e58f e03e 06ce c5be 58b9 aebc 7d92 afbe
000000c0: c34f 59be 5450 00be fb50 953e 3d65 e63e
000000d0: bd54 15bd b97f 02bf 90e9 67be 2d68 9c3d
000000e0: f836 0ebf 40c5 d8be 65e6 08bf 9860 b53e
000000f0: a041 8c3e 9fd3 b2be 9b26 6fbe c9a8 ee3b
00000100: 2c57 b83e 95ea 563e b891 b23e 0cfa b73e
00000110: 8be0 e3be e1ff cebe 5f1a 763e 95fc ea3e
00000120: f35c 123f 1e3c eabe a5e7 4d3e f81b a4be
00000130: bc87 c03e 406f c2be 2b6f 86be 6379 d53e
00000140: 02be 793b 8167 0f3d 6c5d cc3e a4ee 94bd
00000150: 002a 07bf 139b 09bf 618c 0a3f f4f3 d23e
00000160: fee0 983e 00cf 37be 0d29 843e 015b aabe
00000170: 54b8 fabd 56ec 09bf fd19 163e f0f8 8e3d
00000180: 8cbe 9f3c e91a 08bf edac 953e 5021 c7be
00000190: 9cd8 cc3e 77e6 a03d 3e4f c0bb 4457 0e3d
000001a0: 6d94 04be e875 c9be 042b f3be 5b53 eabe
000001b0: b4f4 9fbe 441d c6be d10c 12be 3d7e 063f
000001c0: ab8a c2be da56 853e 203f a83e b27a 843d
000001d0: 965a 9a3c 8923 923e 9478 8bbe b132 b1bc
000001e0: f2c4 f1bd 9e75 0b3f a3c1 d1be 88c8 9ebe
000001f0: f47e 483e f85d 8bbe 27c3 04be f525 813e
00000200: 56e1 8cbe 31b6 96be ea6b dbb9 f54c 7abe
00000210: 8ee2 a43e dfc9 b1bd ffeb 31be ec93 d03e
00000220: 2040 9dbe fe86 133f 4b92 a6be c77b 1ebe
00000230: 43be f63d 2e8c e23d fe08 0f3e 4756 91bd
00000240: b500 083f 8471 9abc 33be 5ebe 9b03 e4bd
00000250: 9928 043f da19 99bc 4862 493c 619a 15be
00000260: feb9 883e aba6 103e 0933 91be 8d0b a1be
00000270: 1eec 97be 6f13 f8be bb7e 16bf 1f18 febe
00000280: bbfb 31be 9bbd e4be a470 87be e148 e53e
00000290: b034 0a3f 6e58 4abe 0c72 b8be b3b0 15be
000002a0: 3ac9 033f 621d c93e a6a6 083e 260d 513e
000002b0: 926d c43e 5611 fabe f62a 94be 123f 253e
000002c0: 3724 7bbd 30fc 98be 1fc0 953e fdaf 5abe
000002d0: 0bf8 feba 95fd 443e c99a d73d a68d 06bf
000002e0: c94f f23e 5942 443d b964 493e ba58 12bf
000002f0: 0c28 493d 7991 ea3e 81ac 2c3d 732b b43c

embedding.bias f4 [64]
-0.41495708 0.4318589 -0.12510476 -0.38230306 -0.5568217 0.32779914 -0.13455668 -0.08113843
-0.18269037 0.52932113 0.41004512 -0.23175584 -0.33685538 0.012105342 -0.08024087 0.3974486
-0.52514696 0.2964998 -0.18947239 0.33022153 0.49455404 -0.2266051 0.5134818 0.42076963
-0.03856402 0.16299576 -0.364444 0.16324903 -0.49405268 -0.1321888 -0.3902885 0.13971502
-0.49448553 -0.44879842 0.52637374 -0.47452253 0.2443207 0.24355891 -0.54148924 0.11701892
0.104697354 0.20117235 0.16748182 0.4692907 -0.3403018 -0.3685679 0.47727525 -0.471594
0.30953786 -0.5400131 -0.4192438 0.12534887 -0.1281811 0.10026396 0.39875692 0.052779246
-0.23816033 -0.03167487 -0.29416132 0.07585758 -0.21511126 -0.5119374 0.2535774 -0.5136204
00000000: 4175 d4be 9c1c dd3e 761b 00be 3abd c3be
00000010: de8b 0ebf 4ad5 a73e 3ac9 09be e82b a6bd
00000020: 2f13 3bbe 9781 073f 6ff1 d13e 6751 6dbe
00000030: 4f78 acbe 7c55 463c 5355 a4bd 627e cb3e
00000040: 0870 06bf d2ce 973e 0d05 42be cc12 a93e
00000050: 3036 fd3e 2b0b 68be 8b73 033f 1e6f d73e
00000060: 4ef5 1dbd 5ce8 263e 6798 babe c12a 273e
00000070: 79f4 fcbe 805c 07be e5d3 c7be 7411 0f3e
00000080: 352d fdbe e8c8 e5be 6ec0 063f 9ef4 f2be
00000090: 352f 7a3e 8267 793e 0a9f 0abf 9ea7 ef3d
000000a0: 916b d63d 2000 4e3e 5b80 2b3e df46 f03e
000000b0: 0a3c aebe efb4 bcbe 6c5d f43e c574 f1be
000000c0: bf7b 9e3e 4c3e 0abf 20a7 d6be 745b 003e
000000d0: e841 03be 3157 cd3d de29 cc3e 0d2f 583d
000000e0: 4de0 73be 82bd 01bd 509c 96be 385b 9b3d
000000f0: 2046 5cbe 540e 03bf e6d4 813e a07c 03bf

norm1.weight f4 [64]
0.9906659 0.99531037 0.98891234 0.9836563 0.98445284 0.9878547 0.99079657 0.9914089
0.9876182 0.98899966 0.99178445 0.98841023 0.98904073 0.98818666 0.98932004 0.98828506
0.9930167 0.9905787 0.9808593 0.982305 0.9924601 0.9933616 0.9889443 0.99211764
0.9925864 0.98990667 0.9940684 0.98894405 0.98546726 0.98591626 0.9937818 0.98736167
0.99471617 0.9922359 0.99416286 0.979845 0.98983514 0.9948859 0.9842994 0.9887832
0.9746873 0.9780974 0.9911892 0.9910038 0.9891619 0.98841083 0.98989105 0.992629
0.9864207 0.9908617 0.9880854 0.9913237 0.98722845 0.9835903 0.9903023 0.9871113
0.98227865 0.9911801 0.9886008 0.9929801 0.9899633 0.9926849 0.99347407 0.9911448
00000000: 489c 7d3f a9cc 7e3f 5c29 7d3f e6d0 7b3f
00000010: 1a05 7c3f 0ce4 7c3f d8a4 7d3f f9cc 7d3f
00000020: 8cd4 7c3f 152f 7d3f 96e5 7d3f 7408 7d3f
00000030: c631 7d3f cdf9 7c3f 1444 7d3f 4000 7d3f
00000040: 5836 7e3f 9196 7d3f 9819 7b3f 5778 7b3f
00000050: dd11 7e3f f24c 7e3f 742b 7d3f 6cfb 7d3f
00000060: 241a 7e3f 866a 7d3f 447b 7e3f 702b 7d3f
00000070: 9547 7c3f 0265 7c3f 7c68 7e3f bcc3 7c3f
00000080: b8a5 7e3f 2c03 7e3f 7581 7e3f 1fd7 7a3f
00000090: d665 7d3f d8b0 7e3f 0cfb 7b3f e520 7d3f
000000a0: 1b85 793f 9764 7a3f 93be 7d3f 6db2 7d3f
000000b0: b739 7d3f 7e08 7d3f 8069 7d3f ef1c 7e3f
000000c0: 1186 7c3f 1da9 7d3f 2af3 7c3f 64c7 7d3f
000000d0: 01bb 7c3f 93cc 7b3f 7484 7d3f 53b3 7c3f
000000e0: 9d76 7b3f fbbd 7d3f f114 7d3f f233 7e3f
000000f0: 3c6e 7d3f 9920 7e3f 5154 7e3f aabb 7d3f

norm1.bias f4 [64]
0.0013231665 0.0006482116 0.0021843142 -0.0038260613 0.014243045 -0.005196613 -0.0033046089 0.0071991864
0.005410043 -0.0075033926 0.0008749441 0.0027402996 0.0047753872 -0.00010532308 -0.0041484125 -0.007945687
0.0021215007 0.0027679775 -0.00019919661 -0.008856816 2.2098382e-05 -0.00285082 0.00072013185 -0.0034185878
-0.00013823589 0.00088999124 0.0041779266 0.0037436993 -0.0016800596 -0.0010482975 -0.0019354983 0.006286878
-0.00088482065 0.0012207486 0.00433932 0.011225615 -0.00071165786 0.007386889 0.0076679983 -0.0007005128
0.009452261 -0.000492602 -0.005172688 0.0025479174 0.0022077437 0.0010681894 -0.00021404026 0.0012378525
-0.004529961 -0.00031625165 0.0051159523 -0.0029671232 -0.009211321 0.0025716117 -0.003644564 0.0012570502
0.001198199 0.010898952 0.013040164 0.0016415482 0.0070362766 0.007487471 2.6821832e-05 -0.0028269673
00000000: 1a6e ad3a beec 293a b626 0f3b a8be 7abb
00000010: a95b 693c 5948 aabb 2392 58bb 27e7 eb3b
00000020: bb46 b13b 05df f5bb 815c 653a 9996 333b
00000030: da7a 9c3b e6e0 dcb8 68ef 87bb a02e 02bc
00000040: e008 0b3b f566 353b 6fdf 50b9 2e1c 11bc
00000050: ea5f b937 d3d4 3abb 3bc7 3c3a 630a 60bb
00000060: 6af3 10b9 4d4e 693a fde6 883b da58 753b
00000070: 7235 dcba 0767 89ba 8cb0 fdba 2802 ce3b
00000080: 4ff3 67ba 8701 a03a db30 8e3b a4eb 373c
00000090: 8d8e 3aba b70d f23b d543 fb3b 9ea2 37ba
000000a0: a8dd 1a3c f621 01ba a77f a9bb f6fa 263b
000000b0: cbaf 103b 7d02 8c3a ff6f 60b9 703f a23a
000000c0: 1170 94bb 94ce a5b9 b8a3 a73b 1174 42bb
000000d0: 15eb 16bc 7c88 283b a3d9 6ebb 9bc3 a43a
000000e0: e30c 9d3a 8591 323c 69a6 553c 3829 d73a
000000f0: 9190 e63b 7659 f53b 72ff e037 a444 39bb

norm2.weight f4 [64]
0.99260885 1.0113257 0.9861128 0.99943674 0.9974979 1.0930762 0.99644685 0.99174976
1.004456 0.9922299 0.988624 0.977396 1.0192219 0.9957942 1.0212364 0.9877081
1.0187552 0.9893459 1.0062617 0.9974481 0.98877054 1.0054055 0.9973345 1.0000527
0.9940605 1.0008072 0.9889079 1.005233 0.9733596 1.0058783 1.0210948 0.9958211
0.98283994 0.9892525 0.9902821 0.98735726 0.98729014 0.9933568 1.0017188 0.9882107
1.0182582 0.9977187 0.99682766 0.99128133 0.9901372 0.98210883 0.9944786 0.995307
0.9998605 0.9929276 0.99711996 1.0045645 1.0193337 1.0037396 1.0123581 0.987046
0.98647463 0.9971818 1.0052607 0.99391323 1.0119079 1.004669 0.98795736 0.9871485
00000000: 9d1b 7e3f 1f73 813f e371 7c3f 16db 7f3f
00000010: 065c 7f3f ece9 8b3f 2417 7f3f 50e3 7d3f
00000020: 0492 803f c702 7e3f 7616 7d3f a036 7a3f
00000030: dd75 823f 5eec 7e3f e0b7 823f 70da 7c3f
00000040: 9266 823f c645 7d3f 2fcd 803f c258 7f3f
00000050: 1120 7d3f 21b1 803f 5051 7f3f ba01 803f
00000060: c07a 7e3f 731a 803f 1129 7d3f 7aab 803f
00000070: 182e 793f 9fc0 803f 3cb3 823f 22ee 7e3f
00000080: 669b 7b3f a73f 7d3f 2183 7d3f 72c3 7c3f
00000090: 0cbf 7c3f a24c 7e3f 5238 803f 60fb 7c3f
000000a0: 4956 823f 7e6a 7f3f 1930 7f3f 9dc4 7d3f
000000b0: a279 7d3f 7c6b 7b3f 2696 7e3f 71cc 7e3f
000000c0: dcf6 7f3f 8130 7e3f 4143 7f3f 9295 803f
000000d0: 8779 823f 8a7a 803f f394 813f 0caf 7c3f
000000e0: 9a89 7c3f 4e47 7f3f 62ac 803f 1971 7e3f
000000f0: 3386 813f fe98 803f c6ea 7c3f c4b5 7c3f

norm2.bias f4 [64]
0.005680648 -0.00078765897 -0.00087197724 -0.0020475243 0.009526266 -0.007149662 0.0076968665 -0.005959575
0.007954052 -0.0050917817 -0.0016695205 0.004728598 0.0034177825 -0.0021231014 -0.0041103256 -4.1957068e-05
-0.011299179 0.0074123195 -0.00514717 -0.011950769 0.0033003925 0.008439433 -0.002106051 0.0070746006
0.006337922 0.0059197457 0.0067766705 0.0061408007 0.014049196 0.00032217774 -0.020233866 0.0014653831
0.0070056273 0.005055953 8.4408675e-05 -0.0088179745 -0.013317585 0.0016712433 -0.0026338329 -0.0039939247
0.004205927 -0.010401229 0.008761168 -0.003202204 -0.0027788214 0.001738928 0.002484191 0.012913056
0.006138992 0.003960004 0.0015942866 -0.008139509 -0.011061493 -0.0069952263 0.00915388 -0.004963535
0.009164391 -0.005953255 0.001542923 -0.0030252454 0.0027976485 0.009725731 -0.002277404 -0.0015430069
00000000: bb24 ba3b e67a 4eba 6795 64ba c22f 06bb
00000010: 0e14 1c3c b647 eabb ff35 fc3b 8a48 c3bb
00000020: b651 023c f6d8 a6bb d0d3 daba 5bf2 9a3b
00000030: e0fc 5f3b bb23 0bbb e9af 86bb 0ffb 2fb8
00000040: 3120 39bc 0be3 f23b 97a9 a8bb 29cd 43bc
00000050: 664b 583b 8c45 0a3c ac05 0abb 0dd2 e73b
00000060: 58ae cf3b 6dfa c13b d50e de3b c538 c93b
00000070: 992e 663c f7e9 a839 7ec1 a5bc 1912 c03a
00000080: 768f e53b 68ac a53b 9004 b138 4479 10bc
00000090: 0032 5abc 9f0d db3a 629c 2cbb 78df 82bb
000000a0: dfd1 893b eb69 2abc 018b 0f3c 11dc 51bb
000000b0: e31c 36bb beec e33a cfcd 223b 4891 533c
000000c0: 9929 c93b ecc2 813b 62f7 d03a 935b 05bc
000000d0: 443b 35bc 3638 e5bb 28fa 153c 26a5 a2bb
000000e0: 3e26 163c 8613 c3bb e83b ca3a 3243 46bb
000000f0: c158 373b ac58 1f3c 8040 15bb b83e caba

norm3.weight f4 [64]
0.9851285 0.9833826 0.982623 0.98296404 0.97401345 0.9953821 0.982381 0.97012395
0.9885908 0.9851304 0.9905596 0.9925354 0.98341393 0.98537344 0.982457 0.98077404
0.9892736 0.9913298 0.9847887 0.9760127 0.98743135 0.97906375 0.9678387 0.9795218
0.9791042 0.9976974 0.98930794 1.0027627 0.986581 0.989132 0.9868042 0.9953208
0.9778539 0.9887369 0.9812918 0.98535013 0.9882393 0.98831093 0.9892396 0.9883491
0.983908 0.9838908 0.98993415 0.9894965 0.9907229 0.9811138 0.9788863 0.98562664
0.98724383 0.9882463 0.98412913 0.9812888 0.9906549 0.99291104 0.98422676 0.9764372
0.9874069 0.99020195 0.98279166 0.98481005 0.9809929 0.9902612 0.98567843 0.98327255
00000000: 6231 7c3f f6be 7b3f 2e8d 7b3f 88a3 7b3f
00000010: f258 793f 5cd1 7e3f 527d 7b3f 0b5a 783f
00000020: 4914 7d3f 8231 7c3f 5095 7d3f cd16 7e3f
00000030: 04c1 7b3f 6f41 7c3f 4d82 7b3f 0214 7b3f
00000040: 0941 7d3f cac7 7d3f 1d1b 7c3f f8db 793f
00000050: 4dc8 7c3f eca3 7a3f 47c4 773f f1c1 7a3f
00000060: 93a6 7a3f 1969 7f3f 4943 7d3f 875a 803f
00000070: 9390 7c3f c137 7d3f 339f 7c3f 58cd 7e3f
00000080: a254 7a3f dd1d 7d3f f035 7b3f e83f 7c3f
00000090: 40fd 7c3f f201 7d3f ce3e 7d3f 7204 7d3f
000000a0: 65e1 7b3f 44e0 7b3f 536c 7d3f a54f 7d3f
000000b0: 04a0 7d3f 462a 7b3f 4b98 7a3f 0752 7c3f
000000c0: 03bc 7c3f b6fd 7c3f e3ef 7b3f be35 7b3f
000000d0: 8f9b 7d3f 6b2f 7e3f 49f6 7b3f caf7 793f
000000e0: b3c6 7c3f e07d 7d3f 3c98 7b3f 831c 7c3f
000000f0: 5a22 7b3f c281 7d3f 6c55 7c3f c0b7 7b3f

norm3.bias f4 [64]
0.005150735 -0.0048874062 0.008650972 0.0053080395 -0.0006642738 -0.002404268 -0.0017184922 -0.00677797
-0.008796253 -0.0044979323 0.0073857056 -0.0072914865 -0.0059640235 0.0035581929 0.004094726 -0.0043389373
-0.007866352 0.0027274736 -0.0030843744 -0.0076703443 0.0062822024 0.005379788 -0.005823803 -0.00021604335
0.001357511 -0.0077607497 0.0014151041 -0.0024905584 -0.0060487925 -0.00513809 0.0073542325 -0.0013219732
-0.00397945 0.0034949286 1.2079725e-05 -0.00024709184 -0.002142132 -0.00078992697 0.005422631 -0.0063027916
0.002912549 0.0048265364 0.004314804 -0.0028464918 -0.00029042203 0.0021502934 -0.0057308297 0.0024061687
-0.0025083465 0.003567423 0.010482516 0.0024935536 -0.0025086058 -0.0014647982 -0.0057163765 0.0019862682
-0.0056280675 0.005262813 0.0028518524 0.0060295495 -1.0872762e-05 -0.005783356 -0.0050843502 0.0027707024
00000000: 7fc7 a83b 8926 a0bb cebc 0d3c 10ef ad3b
00000010: a922 2eba ec90 1dbb 083f e1ba bc19 debb
00000020: 291e 10bc 6463 93bb ca03 f23b 6ced eebb
00000030: db6d c3bb 9230 693b 0d2d 863b a52d 8ebb
00000040: dfe1 00bc 6abf 323b 3723 4abb 8357 fbbb
00000050: efda cd3b ef48 b03b 9ad5 bebb b289 62b9
00000060: 83ee b13a e34d febb 047b b93a a338 23bb
00000070: f334 c6bb 6c5d a8bb c6fb f03b 0f46 adba
00000080: 0c66 82bb 2c0b 653b 06aa 4a37 1b8c 81b9
00000090: 0363 0cbb 1a13 4fba 53b0 b13b a687 cebb
000000a0: 77e0 3e3b ec27 9e3b 3363 8d3b 358c 3abb
000000b0: c943 98b9 f0eb 0c3b afc9 bbbb d0b0 1d3b
000000c0: 1263 24bb 6dcb 693b dcbe 2b3c e36a 233b
000000d0: 6c67 24bb 79fe bfba 7150 bbbb 0d2c 023b
000000e0: a76b b8bb ad73 ac3b 25e6 3a3b 8793 c53b
000000f0: 286a 36b7 4e82 bdbb 9f9a a6bb ac94 353b

l1.to_qkv.weight f4 [192, 64]
0.06172088 -0.021591399 0.10774537 -0.043753833 -0.023519166 0.056799494 -0.117835686 -0.114905804
0.014775054 0.06530773 -0.08664496 0.046056297 0.09473715 0.034313977 0.10930909 -0.03886813
-0.0016342581 -0.100034766 -0.008203409 0.025670141 -0.039366685 0.023667062 -0.103212856 0.0881482
0.05574002 -0.08951883 0.021633113 0.046142783 0.097657636 0.0884203 -0.08940161 0.051561695
-0.091731995 0.091941506 0.049112547 0.030922337 0.032263104 -0.09038397 0.042703446 -0.02814085
-0.07669979 -0.059882708 0.10054403 -0.076548584 -0.05151879 0.014600969 0.01924755 0.055276737
0.10733326 0.10311761 0.029175455 0.09373994 0.111234725 0.10492914 -0.040633887 0.113222934
-0.04005972 -0.042166974 -0.0002746496 0.109992914 -0.11653065 -0.00431869 -0.022903947 0.049981292
0.010573526 0.046237465 -0.11256147 -0.025887229 -0.04773894 0.05427134 -0.06120026 0.07128859
0.05383959 -0.10206425 0.11148711 -0.052844215 -0.03366481 0.08612682 -0.11825731 0.0010587486
0.021890998 0.021406192 -0.08433456 0.0878066 0.06432091 0.037299618 -0.05324466 -0.041350733
0.09448542 0.07606302 -0.07062924 0.035811074 -0.06710797 0.012624189 -0.07439319 0.017631594
0.06770628 -0.12165212 0.09312479 -0.020816296 0.08032031 -0.050838675 -0.029031502 0.07302283
0.12299377 -0.056698434 -0.061630167 -0.071840316 0.041192204 0.004805151 -0.051112432 -0.04134423
-0.09940221 -0.09394953 -0.0027698958 0.045454197 0.080786355 -0.0038955947 -0.118071236 -0.04716046
0.101228826 0.027030533 -0.043970652 -0.096697405 0.022694994 0.064260915 0.009211909 -0.030513523
-0.10063884 0.03263183 -0.024573527 0.110625945 -0.07198515 -0.038027376 -0.100412846 -0.00022807434
0.04635862 -0.102723844 0.07785604 -0.069913775 -0.027362488 0.04786122 0.058327787 0.12722054
0.12367206 -0.010098832 -0.00466884 -0.027081737 -0.1114473 -0.07054707 -0.03991242 0.01772838
0.05387076 -0.109190315 -0.016121069 0.06580456 -0.07601666 -0.06435848 0.11125023 -0.060896333
0.03367049 0.09633568 0.11717958 -0.0307654 -0.0989763 -0.055376507 0.047651723 -0.02569008
0.064087674 -0.103341326 0.0043625277 0.10644536 0.007545406 0.0050559747 -0.07565556 0.025921779
-0.034171294 -0.08794403 -0.110773794 0.12027173 0.10405795 0.10440052 0.074896544 -0.047834624
-0.008132444 0.096179865 0.093010515 -0.043254826 0.09169077 -0.11768271 -0.09177138 0.02226439
0.041640446 -0.036330704 -0.104951136 -0.03699641 0.008191553 -0.015354399 -0.060919672 0.050223436
-0.052999027 0.014228617 -0.09751859 -0.012041408 0.0068943077 0.09073807 0.11829855 0.029492892
0.113373294 -0.0028238578 0.08716618 -0.071125165 -0.009226389 -0.06767596 0.04634869 0.013724518
-0.10490956 -0.0378942 0.05393015 0.048308324 0.07097923 -0.0017570109 -0.0787453 0.07001563
0.031258754 0.034890216 -0.005212344 0.09309665 0.088121526 -0.089039564 -0.030345298 -0.031439118
-0.052031044 -0.024386823 -0.03498872 0.11452053 0.027849836 0.12133993 -0.12231944 0.011358235
0.043244157 -0.086391106 -0.1061915 0.025357338 0.07892458 0.053931292 0.080742225 0.1129752
-0.123481706 0.052175563 0.060497914 0.038688224 0.08873037 -0.06577322 -0.03999473 0.06572806
00000000: 09cf 7c3d 72e0 b0bc 9ba9 dc3d 3837 33bd
00000010: 44ab c0bc 96a6 683d d653 f1bd bc53 ebbd
00000020: 1113 723c 0fc0 853d ea72 b1bd 87a5 3c3d
00000030: 8d05 c23d d08c 0c3d 72dd df3d 3034 1fbd
00000040: 9a34 d6ba 07df ccbd 9767 06bc 304a d23c
00000050: f63e 21bd 6de1 c13c 4361 d3bd 0b87 b43d
00000060: a64f 643d a655 b7bd ed37 b13c 3700 3d3d
00000070: ba00 c83d b415 b53d 3118 b7bd 5b32 533d
00000080: fcdd bbbd d44b bc3d 3d2a 493d d750 fd3c
00000090: 5126 043d 3b1b b9bd cfe9 2e3d a487 e6bc
000000a0: c814 9dbd 9247 75bd 07ea cd3d 81c5 9cbd
000000b0: 5e05 53bd e738 6f3c 0aad 9d3c dc69 623d
000000c0: 8ad1 db3d 532f d33d 5d01 ef3c bafa bf3d
000000d0: 08cf e33d 17e5 d63d b86f 26bd 6de1 e73d
000000e0: a915 24bd 47b7 2cbd d8fe 8fb9 f743 e13d
000000f0: 9fa7 eebd cc83 8dbb 0fa1 bbbc 2fb9 4c3d
00000100: 953c 2d3c 7f63 3d3d a186 e6bd 7411 d4bc
00000110: e889 43bd a04b 5e3d 20ad 7abd c1ff 913d
00000120: e786 5c3d 1007 d1bd 5b53 e43d 2d73 58bd
00000130: 1de4 09bd 4263 b03d e330 f2bd b5c5 8a3a
00000140: c054 b33c 0a5c af3c 99b7 acbd f2d3 b33d
00000150: aeba 833d 7cc7 183d 1317 5abd 635f 29bd
00000160: 9281 c13d eec6 9b3d 10a6 90bd a2ae 123d
00000170: e76f 89bd b0d5 4e3c 755b 98bd 2270 903c
00000180: 97a9 8a3d bf24 f9bd 36b8 be3d f086 aabc
00000190: fa7e a43d 373c 50bd 79d3 edbc fe8c 953d
000001a0: 28e4 fb3d 9e3c 68bd ea6f 7cbd 0421 93bd
000001b0: 28b9 283d 8774 9d3b 455b 51bd 9158 29bd
000001c0: 6393 cbbd 9c68 c0bd 2487 35bb 2e2e 3a3d
000001d0: 5173 a53d 3c4d 7fbb 55cf f1bd 542b 41bd
000001e0: 0f51 cf3d 236f dd3c 921a 34bd 4a09 c6bd
000001f0: daea b93c 3a9b 833d 8ced 163c 7ff7 f9bc
00000200: bc1b cebd f4a8 053d 6c4e c9bc db8f e23d
00000210: f36c 93bd 98c2 1bbd 40a5 cdbd 3d27 6fb9
00000220: 89e2 3d3d e160 d2bd fd72 9f3d f42e 8fbd
00000230: 4c27 e0bc 200a 443d 1ee9 6e3d 1a46 023e
00000240: c747 fd3d 9275 25bc 12fd 98bb 85da ddbc
00000250: 7b3e e4bd fb7a 90bd 357b 23bd 1c3b 913c
00000260: 96a7 5c3d 2c9f dfbd 5510 84bc 8bc4 863d
00000270: 9fae 9bbd 61ce 83bd 29d7 e33d 6f6e 79bd
00000280: 11ea 093d a44b c53d d9fb ef3d b807 fcbc
00000290: 16b4 cabd 7ad2 62bd 742e 433d 0174 d2bc
000002a0: 6640 833d 9ea4 d3bd 89f3 8e3b 0600 da3d
000002b0: 743f f73b 97ac a53b 4df1 9abd e959 d43c
000002c0: 33f7 0bbd 001c b4bd 5fdd e2bd 0651 f63d
000002d0: 561c d53d f1cf d53d 5c63 993d 3dee 43bd
000002e0: f13d 05bc f3f9 c43d 4c7c be3d f92b 31bd
000002f0: 5fc8 bb3d a203 f1bd a2f2 bbbd cf63 b63c
00000300: 2c8f 2a3d 81cf 14bd 9ff0 d6bd 8c89 17bd
00000310: dd35 063c 0491 7bbc e886 79bd 17b7 4d3d
00000320: 8215 59bd 251f 693c d4b7 c7bd 5349 45bc
00000330: a5e9 e13b e2d4 b93d 8346 f23d 149b f13c
00000340: 4230 e83d 7910 39bb 2f84 b23d 12aa 91bd
00000350: 482a 17bc b299 8abd 20d8 3d3d cddc 603c
00000360: d3da d6bd f336 1bbd dce5 5c3d f3de 453d
00000370: 8f5d 913d 814b e6ba 3745 a1bd 5b64 8f3d
00000380: 2e09 003d 0be9 0e3d 50cc aabb 75a9 be3d
00000390: 0f79 b43d 605a b6bd b496 f8bc 4ec6 00bd
000003a0: 811e 55bd e0c6 c7bc 5550 0fbd bd89 ea3d
000003b0: 5725 e43c 1281 f83d 9d82 fabd e417 3a3c
000003c0: c920 313d d2ed b0bd ee7a d9bd 31ba cf3c
000003d0: 36a3 a13d 0fe7 5c3d 2e5c a53d 8b5f e73d
000003e0: fae3 fcbd 0bb6 553d a9cc 773d 8b77 1e3d
000003f0: 45b8 b53d 1cb4 86bd 84d1 23bd 6f9c 863d

l1.to_out.weight f4 [64, 64]
0.003697207 -0.12975793 0.05709584 -0.0646556 0.043722644 -0.07208988 -0.10448062 0.025028503
0.09955712 0.1058088 0.098273836 -0.0707098 0.07698358 -0.034216363 -0.05078493 -0.06409187
-0.034737714 0.107887544 -0.09073319 0.008098652 -0.11773216 -0.03267207 0.035167236 0.038692586
-0.003244192 -0.03934673 0.10356462 -0.0023302438 0.10110387 -0.055825144 -0.07947256 0.09968628
-0.056871817 -0.023590883 0.08699414 0.03268509 -0.06168108 -0.079122834 0.072216876 -0.090871416
-0.045373023 0.12612502 -0.080709584 -0.012882864 0.043785043 0.07114805 0.022633346 0.10931419
0.033726446 -0.08436033 0.07288557 -0.046375677 0.09568337 0.09150833 0.055797312 0.046888314
0.11667715 -0.011079989 0.010490628 -0.11358105 -0.04646461 -0.09108723 0.081485584 0.045230187
-0.117214076 0.09000469 -0.06817225 0.09872224 0.040495664 0.040263437 -0.09070929 -0.039309498
0.072622515 0.062260862 -0.046286393 0.12962517 0.038352538 -0.02724754 -0.023250777 0.0057233814
-0.036008965 -0.106696025 0.09097124 -0.08691266 -0.01599015 -0.11300849 0.041876744 0.052434996
-0.06458531 -0.017855544 -0.0152452495 -0.041274894 0.02603599 0.014017021 0.095857315 -0.0013076722
-0.040757615 0.06267318 0.118791394 0.077065036 0.03683735 -0.06104229 -0.08925836 -0.02636068
0.12001248 -0.02923634 0.11889726 0.027795376 0.04556561 0.05478683 0.056046437 0.12496436
-0.06320272 -0.035597797 0.095158644 0.120910205 0.06193518 -0.047129888 -0.06315487 0.07484435
-0.01674044 0.05257963 0.11088587 0.090246424 0.015073343 0.120250076 0.056349237 -0.099847704
0.016897649 -0.026939439 -0.09454474 -0.0780996 -0.10276322 0.05745277 -0.056224465 -0.10991163
-0.02037261 -0.07967006 -0.04501297 0.016897649 -0.12271287 0.022736408 0.06806873 0.06565092
0.100988336 -0.01938945 -0.074862406 -0.115765534 -0.043584052 -0.011335338 -0.022093654 0.07269214
-0.11793399 -0.10748491 0.06929188 0.0750417 0.055263367 -0.034179688 -0.054530855 -0.10400799
0.11727525 -0.09264493 -0.035012238 0.032990426 -0.07536134 0.018185996 0.04337753 0.00019511356
-0.029519605 -0.11692619 0.08038194 0.00045887564 -0.025535895 0.0423035 0.115155704 0.10263456
0.097513735 -0.013061911 -0.040136613 0.015620553 0.08615525 0.0067092134 0.04984774 0.02209506
0.011848036 -0.0483983 -0.046564624 -0.089426 0.10792651 -0.124768026 -0.110443786 0.10272382
-0.06777168 0.13362105 -0.009948491 -0.10945397 0.024312979 -0.09781417 -0.042786617 0.08332998
-0.036774833 0.023397217 -0.03937878 0.08745634 -0.017015286 -0.09083716 -0.061427705 -0.07847029
-0.00090309646 -0.05016057 0.11848996 -0.034159813 0.12897041 0.051018354 -0.059313327 -0.03735004
0.025744397 -0.09088126 0.05740386 -0.0012407885 -0.070631914 -0.03476958 0.005468603 0.05608841
0.115616776 -0.0072476165 -0.023365505 0.063500576 -0.08230373 -0.08324129 0.017576952 0.035577018
-0.06808711 0.04905761 -0.023055814 -0.047573533 0.02911963 -0.1347093 0.09116419 -0.055263128
-0.012808913 -0.077494316 0.11773675 -0.08454566 0.10861635 0.10298237 -0.05446851 0.052450027
-0.10944717 -0.10619294 0.014757484 0.03756401 0.056253415 0.06881339 0.10435535 -0.09253673
00000000: d74c 723b 43df 04be 54dd 693d 286a 84bd
00000010: 8416 333d dca3 93bd eff9 d5bd 9308 cd3c
00000020: 9ae4 cb3d 49b2 d83d cb43 c93d 4dd0 90bd
00000030: 91a9 9d3d 7526 0cbd dc03 50bd 9942 83bd
00000040: 2249 0ebd 25f4 dc3d 53d2 b9bd 35b0 043c
00000050: 8f1d f1bd 26d3 05bd 850b 103d 1e7c 1e3d
00000060: 839c 54bb 092a 21bd b019 d43d 01b7 18bb
00000070: 8c0f cf3d e8a8 64bd 82c2 a2bd 5228 cc3d
00000080: 6cf2 68bd ab41 c1bc fc29 b23d cde0 053d
00000090: 4da5 7cbd 270b a2bd 71e6 933d cb1a babd
000000a0: 10d9 39bd eb26 013e 114b a5bd a612 53bc
000000b0: f257 333d 12b6 913d 9169 b93c 1ee0 df3d
000000c0: be24 0a3d 1cc5 acbd 0845 953d 6cf4 3dbd
000000d0: a5f5 c33d b868 bb3d b98b 643d f60d 403d
000000e0: 6ef4 ee3d d888 35bc e2e0 2b3c 2e9d e8bd
000000f0: ad51 3ebd f18b babd eae1 a63d 4a43 393d
00000100: ef0d f0bd 6154 b83d e59d 8bbd e32e ca3d
00000110: c8de 253d 46eb 243d cbc5 b9bd ff02 21bd
00000120: 1dbb 943d 3f05 7f3d cd96 3dbd 76bc 043e
00000130: 8d17 1d3d 3c36 dfbc 6a78 bebc 348b bb3b
00000140: 237e 13bd 7283 dabd 214f ba3d 44ff b1bd
00000150: c6fd 82bc ff70 e7bd f386 2b3d 14c6 563d
00000160: 4e45 84bd ca45 92bc 36c7 79bc dd0f 29bd
00000170: 6e49 d53c a6a7 653c d750 c43d 3366 abba
00000180: 75f1 26bd cc5a 803d e748 f33d 46d4 9d3d
00000190: c3e2 163d 7b07 7abd 16cd b6bd 5af2 d7bc
000001a0: 1ac9 f53d 0d81 efbc 6880 f33d 21b3 e33c
000001b0: 01a3 3a3d 2868 603d f390 653d 50ed ff3d
000001c0: 6d70 81bd ffce 11bd 89e2 c23d c59f f73d
000001d0: beaf 7d3d 450b 41bd 5757 81bd ff47 993d
000001e0: 3f23 89bc bd5d 573d 2218 e33d 1ed3 b83d
000001f0: 2ff6 763c ac45 f63d 75ce 663d f47c ccbd
00000200: f06c 8a3c 19b0 dcbc aca0 c1bd aff2 9fbd
00000210: 8675 d2bd 9953 6b3d a04b 66bd 5919 e1bd
00000220: 76e4 a6bc 0e2a a3bd 855f 38bd f06c 8a3c
00000230: e350 fbbd b441 ba3c 9e67 8b3d fd73 863d
00000240: f9d2 ce3d a0d6 9ebc 7651 99bd 7b16 edbd
00000250: 3185 32bd dab7 39bc c0fd b4bc 9edf 943d
00000260: 6087 f1bd 0c21 dcbd e7e8 8d3d 76af 993d
00000270: d75b 623d 0000 0cbd bf5b 5fbd 2402 d5bd
00000280: 022e f03d a0bc bdbd fe68 0fbd f820 073d
00000290: 0c57 9abd ccfa 943c a3ac 313d 6697 4c39
000002a0: 19d3 f1bc 0077 efbd 499f a43d 3f95 f039
000002b0: a730 d1bc 6f46 2d3d c1d6 eb3d 1132 d23d
000002c0: 48b5 c73d a001 56bc 4a66 24bd 59ed 7f3c
000002d0: 2a72 b03d f6d8 db3b 252d 4c3d b300 b53c
000002e0: 441e 423c 4c3d 46bd 8cba 3ebd fb24 b7bd
000002f0: 9308 dd3d 6186 ffbd 5a30 e2bd de60 d23d
00000300: e1cb 8abd f5d3 083e fffe 22bc 6729 e0bd
00000310: 032c c73c cc52 c8bd 0541 2fbd e9a8 aa3d
00000320: 35a1 16bd 85ab bf3c a54b 21bd 4f1c b33d
00000330: a463 8bbc d508 babd 9e9b 7bbd 08b5 a0bd
00000340: c7bd 6cba 2b75 4dbd ddaa f23d 29eb 0bbd
00000350: d210 043e 9ff8 503d 88f2 72bd 5bfc 18bd
00000360: eae5 d23c f41f babd 4f20 6b3d f4a1 a2ba
00000370: 77a7 90bd 8c6a 0ebd f831 b33b f6bc 653d
00000380: 7dc8 ec3d 6a7d edbb 0469 bfbc 970c 823d
00000390: dc8e a8bd 697a aabd 8afd 8f3c 35b9 113d
000003a0: 4171 8bbd a2f0 483d 8cdf bcbc 77dc 42bd
000003b0: 4a8c ee3c 3cf1 09be 4ab4 ba3d 975b 62bd
000003c0: 7adc 51bc 57b5 9ebd f71f f13d 4626 adbd
000003d0: 4072 de3d 6ce8 d23d 5f1a 5fbd d7d5 563d
000003e0: d625 e0bd af7b d9bd 60c9 713c b8dc 193d
000003f0: fb69 663d 09ee 8c3d 42b8 d53d e683 bdbd

l1.to_out.bias f4 [64]
0.12372762 -0.01073435 0.023742769 0.071512334 0.04328554 -0.041447237 -0.0051839678 0.08442752
-0.09010027 -0.027182516 0.07548902 -0.08633251 -0.023887726 -0.07863811 0.021576906 -0.02566764
0.028286275 -0.060143676 0.11328699 -0.11242048 0.012135911 0.045080613 -0.0064730593 0.07388088
-0.053220604 0.09702487 -0.062535465 0.03423839 -0.057491172 0.11942303 -0.023367863 0.04454966
-0.056976657 0.09662691 0.007644336 0.02649512 0.11584074 0.001309907 0.04928916 -0.07936495
0.016704176 0.09893256 0.12483281 0.09705022 -0.12086074 0.0632835 -0.027461784 2.3831186e-05
0.014759869 -0.101283945 -0.04788565 -0.0419803 0.012550453 -0.07631533 0.12133922 -0.06770058
-0.12389709 -0.06307445 0.11799411 -0.083418354 -0.021935916 0.07861388 -0.046279367 0.0917788
00000000: e864 fd3d 21df 2fbc 3280 c23c 0f75 923d
00000010: 2e4c 313d 94c4 29bd 46de a9bb 56e8 ac3d
00000020: 7e86 b8bd dead debc fd99 9a3d 19cf b0bd
00000030: 31b0 c3bc 040d a1bd 0dc2 b03c f144 d2bc
00000040: 9eb8 e73c 3759 76bd 0203 e83d b53c e6bd
00000050: b3d5 463c 73a6 383d f51b d4bb dc4e 973d
00000060: d9fd 59bd fab4 c63d 9812 80bd 8e3d 0c3d
00000070: dd7b 6bbd 1094 f43d f66d bfbc b479 363d
00000080: 5b60 69bd 54e4 c53d 577d fa3b 4b0c d93c
00000090: e93d ed3d 2fb1 ab3a 6ee3 493d 178a a2bd
000000a0: 32d7 883c 279d ca3d 58a8 ff3d 44c2 c63d
000000b0: d685 f7bd c89a 813d 89f7 e0bc 15e9 c737
000000c0: 61d3 713c f56d cfbd be23 44bd 89f3 2bbd
000000d0: 6aa0 4d3c 364b 9cbd b280 f83d 9aa6 8abd
000000e0: c2bd fdbd 2d2d 81bd e5a6 f13d 3ed7 aabd
000000f0: f3b2 b3bc 5000 a13d 6f8f 3dbd 86f6 bb3d

l3.to_qkv.weight f4 [192, 64]
0.11876759 0.06553536 0.008926274 0.026228353 -0.0914123 -0.073553704 0.026826989 -0.0672106
0.07514345 0.06460579 0.11756616 -0.057604417 0.037614297 -0.02612399 -0.057301734 -0.024343146
-0.0021078582 0.121036954 -0.069366485 0.087791346 -0.04573231 -0.06773842 0.08771812 0.10190453
-0.08535782 -0.038582284 -0.103541754 0.101591796 0.054578774 0.022503668 0.086733624 0.047030807
0.11934492 0.030572794 0.015308181 -0.0965086 0.10089585 -0.08755846 -0.07807359 0.10695713
0.049619403 -0.030704545 -0.068297595 -0.014491689 0.02383396 -0.06392552 0.069609225 0.026785707
-0.087845184 0.026169814 0.12195145 -0.025397463 -0.11591586 0.07912348 -0.09753635 -0.0051226043
0.115322046 -0.007253109 -0.061872777 -0.11812696 0.067155115 -0.12978102 -0.070562996 -0.10339224
-0.026864564 -0.09706762 0.05294623 0.074741006 -0.088883206 -0.034153633 -0.08519084 -0.0009130099
-0.035832047 0.1082811 -0.010831369 0.034401074 0.11336573 -0.10337335 -0.09300659 -0.078036286
-0.12448129 -0.10279136 0.07173392 0.023096986 0.00642117 0.062537104 0.013201021 0.09360243
-0.034244765 -0.02980591 0.118646376 -0.019049916 0.021357995 0.05781569 -0.10562286 -0.05147548
0.017358432 0.03818902 0.04282131 -0.004826046 -0.021812726 0.105451256 0.014356258 0.04706452
0.11373574 0.11613773 -0.0034401012 0.08906417 -0.08948949 0.057558257 -0.032946736 -0.009339478
0.0023256845 0.09906368 0.08418328 0.00027983016 0.10503991 0.033123117 -0.05507958 0.0053070104
0.07813683 -0.032535326 0.048314452 -0.039975595 0.016749883 0.024627028 0.11393939 -0.011340019
-0.046859715 -0.0215318 0.09419944 0.03632412 0.08153625 0.10235085 -0.07920896 -0.07271131
0.0004829342 -0.0603971 -0.07460095 0.082375765 -0.110428005 0.07215811 -0.08528662 -0.098260894
0.08362725 0.038325265 0.08933492 0.11708403 -0.012056612 -0.10735015 -0.004583744 -0.076188706
0.0880407 -0.10192578 -0.10839809 -0.09716004 0.06563234 0.09611122 0.09796139 0.118255205
0.07338995 0.06291571 -0.12351841 0.05982505 0.07966176 -0.049787764 -0.0073476834 -0.074889876
-0.053972572 -0.040061247 0.04371348 -0.07663681 0.07747552 -0.05190381 0.08671668 -0.007711347
0.123534136 0.09793072 0.07365386 0.073128544 0.05746852 -0.045597795 -0.06257508 0.019117324
0.06996397 -0.054897003 0.07774013 0.012416433 0.053194903 0.012989018 0.09292174 -0.028899271
0.039136846 -0.077432156 -0.083402425 0.110171564 0.009002331 -0.08227689 -0.053762004 -0.061598327
0.08269012 0.0344756 -0.105088055 0.04638961 -0.011959105 0.04314562 -0.04390331 0.07812898
-0.1250925 -0.10380613 0.041932788 0.08444758 0.005129152 0.00047202504 0.12586245 -0.05807996
0.030001435 -0.07983478 0.04656131 -0.037672605 -0.03603497 -0.08666345 0.10790689 -0.071752325
-0.04382764 -0.055234678 -0.11533863 -0.05835564 -0.09717954 -0.072415054 0.031367734 -0.090113886
0.010810582 0.013975575 0.06565464 -0.048297796 -0.10416753 0.07982218 -0.06494727 0.096065804
0.075868994 -0.034431323 0.102704905 -0.04970518 -0.015554541 -0.04944914 -0.0042044395 0.003060914
-0.017082646 -0.10520808 0.06305078 -0.004638119 -0.04432957 0.05811088 -0.08608697 0.04821827
00000000: 6c3c f33d 6737 863d 823f 123c d8dc d63c
00000010: 5f36 bbbd 53a3 96bd 46c4 db3c b6a5 89bd
00000020: cfe4 993d 0a50 843d 87c6 f03d 9cf2 6bbd
00000030: 7311 1a3d fa01 d6bc 39b5 6abd 476b c7bc
00000040: fe23 0abb 39e2 f73d 0410 8ebd f3cb b33d
00000050: cd51 3bbd 71ba 8abd 8fa5 b33d 52b3 d03d
00000060: 15d0 aebd 7508 1ebd b30d d4bd 5c0f d03d
00000070: fe8d 5f3d 9d59 b83c 66a1 b13d 60a3 403d
00000080: 1c6b f43d cc73 fa3c 2acf 7a3c 4da6 c5bd
00000090: 7ca2 ce3d da51 b3bd 0ce5 9fbd 570c db3d
000000a0: b73d 4b3d 1988 fbbc 9cdf 8bbd 8d6e 6dbc
000000b0: 703f c33c 62eb 82bd 488f 8e3d b36d db3c
000000c0: 2de8 b3bd 1462 d63c afc1 f93d 570e d0bc
000000d0: 4b65 edbd 7e0b a23d 23c1 c7bd 85db a7bb
000000e0: f72d ec3d 7dab edbb 4f6e 7dbd 8cec f1bd
000000f0: 9f88 893d 51e5 04be 5583 90bd 50bf d3bd
00000100: 1313 dcbc 63cb c6bd 25de 583d d011 993d
00000110: 6608 b6bd aee4 0bbd 8978 aebd 0f57 6fba
00000120: a0c4 12bd 7bc2 dd3d 0e76 31bc 24e8 0c3d
00000130: 4b2c e83d 68b5 d3bd 3d7a bebd 7dd1 9fbd
00000140: 0cf0 febd 4784 d2bd 3ce9 923d e435 bd3c
00000150: ae68 d23b 7413 803d 1849 583c a1b2 bf3d
00000160: 3d44 0cbd 862b f4bc dffc f23d 920e 9cbc
00000170: f6f6 ae3c 25d0 6c3d cc50 d8bd f4d7 52bd
00000180: 4533 8e3c 176c 1c3d 6665 2f3d cf23 9ebb
00000190: 9ab0 b2bc d4f6 d73d 8336 6b3c bac6 403d
000001a0: 49ee e83d 9ed9 ed3d 5273 61bb 4767 b63d
000001b0: 4446 b7bd 35c2 6b3d 28f3 06bd 9c04 19bc
000001c0: 836a 183b e6e1 ca3d 4968 ac3d 2bb6 9239
000001d0: 2a1f d73d 1bac 073d 209b 61bd 6ee6 ad3b
000001e0: 3406 a03d c343 05bd 60e5 453d 73bd 23bd
000001f0: 0d37 893c 9fbe c93c 0e59 e93d 7dcb 39bc
00000200: f9ef 3fbd 7563 b0bc a3eb c03d 9ac8 143d
00000210: 7afc a63d 539d d13d 4f38 a2bd abe9 94bd
00000220: 5532 fd39 f362 77bd 62c8 98bd a0b4 a83d
00000230: 1428 e2bd a2c7 933d c0aa aebd 023d c9bd
00000240: c344 ab3d f4fa 1c3d 3af5 b63d c0c9 ef3d
00000250: 1989 45bc 65da dbbd 3b33 96bb d308 9cbd
00000260: af4e b43d 77be d0bd d1ff ddbd d8fb c6bd
00000270: 406a 863d f6d5 c43d fb9f c83d c92f f23d
00000280: 784d 963d f4d9 803d 38f7 fcbd 1d0b 753d
00000290: b425 a33d 41ee 4bbd d6c4 f0bb dd5f 99bd
000002a0: 5812 5dbd 4317 24bd e80c 333d c3f3 9cbd
000002b0: 7cab 9e3d 1799 54bd 8498 b13d 78af fcbb
000002c0: 77ff fc3d e78f c83d d6d7 963d 6bc4 953d
000002d0: 1c64 6b3d c1c4 3abd 5d27 80bd ef9b 9c3c
000002e0: 4549 8f3d aedb 60bd 3836 9f3d 4b6e 4b3c
000002f0: e6e2 593d e4cf 543c c14d be3d 2abe ecbc
00000300: f54d 203d c094 9ebd e4ce aabd a1a1 e13d
00000310: 837e 133c c980 a8bd 8c35 5cbd 874e 7cbd
00000320: 7059 a93d 4936 0d3d 6838 d7bd 0803 3e3d
00000330: 1ff0 43bc 76b9 303d f5d3 33bd 1602 a03d
00000340: 4018 00be 4f98 d4bd b7c1 2b3d daf2 ac3d
00000350: 7212 a83b 217a f739 16e2 003e 41e5 6dbd
00000360: 92c5 f53c 6b80 a3bd 12b7 3e3d 974e 1abd
00000370: 6899 13bd 9b7c b1bd 4afe dc3d e2f2 92bd
00000380: 9d84 33bd c23d 62bd a936 ecbd 5306 6fbd
00000390: 1106 c7bd 584e 94bd 747b 003d a18d b8bd
000003a0: de1e 313c cff9 643c f175 863d e9d3 45bd
000003b0: c955 d5bd d079 a33d 1303 85bd 26be c43d
000003c0: 3461 9b3d dc07 0dbd f356 d23d a997 4bbd
000003d0: 79d8 7ebc 2e8b 4abd 65c5 89bb 9e99 483b
000003e0: e8f0 8bbc 5577 d7bd c420 813d 5dfb 97bb
000003f0: ec92 35bd ad05 6e3d 5e4e b0bd 8580 453d

l3.to_out.weight f4 [64, 64]
0.006439003 0.092105635 0.02832924 -0.046158936 0.12070231 0.019766698 -0.007050112 -0.09342063
-0.07057966 0.11063078 0.105709925 -0.026191393 0.03607137 0.031123018 -0.029221771 -0.06215987
-0.08452307 -0.070791475 0.035471153 0.047858007 -0.063301444 0.08292328 -0.06723317 -0.06211194
-0.058365617 0.085874245 -0.04424004 -0.05715377 0.036330838 -0.0056740935 -0.0802163 0.025296
0.027258405 0.09895681 -0.015432063 -0.0119526535 0.09219386 0.03846539 -0.12448722 -0.011609626
0.01830378 0.04295742 -0.0407138 0.10571303 0.034728907 -0.03189916 -0.056216605 0.07222753
-0.034466103 0.030991504 0.0029221405 0.111017555 0.112992056 0.0641458 0.07930408 -0.008757241
-0.030447755 0.023048004 0.027938869 0.08207853 -0.06905717 0.10764269 -0.05185005 0.1120079
-0.10453673 -0.020522956 0.056650363 -0.05037462 0.09676813 -0.08390644 0.115661666 -0.009082514
-0.04709914 -0.036982812 0.006954714 -0.08852904 0.07576227 0.060018625 -0.023092695 0.098410584
-0.009720821 -0.05266129 -0.04421926 -0.052325074 -0.09039914 0.08181845 -0.03447763 0.009514126
0.083890356 -0.08637304 -0.11471306 0.022612927 -0.038597878 -0.06830301 0.11374824 -0.0093463
0.055733673 -0.10557276 0.08579185 0.07562394 -0.01765538 0.045907293 0.113432504 -0.010105491
-0.121968776 -0.1087727 0.008743654 -0.09629558 0.09757013 0.038260654 0.10237361 0.09590411
-0.09974778 0.06560116 -0.09883742 0.080301106 -0.016604187 0.029916232 0.03783469 -0.017254222
0.057558727 -0.08748459 -0.07189753 -0.091758914 0.026997311 0.083474055 0.03820051 -0.06283757
0.03942883 0.12168673 -0.033980932 -0.013579361 -0.10558109 -0.043588255 -0.08080686 0.08429988
-0.03823143 -0.08795405 0.09770064 -0.03155449 -0.014886298 -0.1079374 -0.08464715 -0.08721209
-0.028944522 0.063563 0.07317593 -0.010431273 0.032193396 0.09303323 -0.093957245 0.09614413
0.007940565 0.06829533 0.0013036745 0.1037144 -0.030100008 -0.102740444 -0.08693758 -0.041740563
-0.05231009 -0.060339898 0.1262483 -0.026912732 -0.08009197 0.10228291 -0.032631975 0.044616602
0.015376265 0.073724195 -0.11591864 0.042017862 0.07269735 -0.048145205 -0.007349636 -0.07857902
-0.039944854 0.021348275 0.048028782 0.056354217 -0.01890151 0.023417624 0.08427251 -0.09390948
-0.016851146 0.036780372 0.12060735 -0.09441121 -0.004118885 -0.0048039253 0.06492256 -0.09772593
0.09174622 -0.03666904 0.068171285 -0.059262935 -0.088784106 -0.118169755 -0.057042513 0.07911143
-0.06947018 -0.07234626 -0.07487144 0.10053484 0.06656269 -0.0064813565 -0.117392816 -0.04611314
0.009393931 0.015754057 -0.0015198584 0.009289043 0.029012902 -0.008883484 -0.12411795 0.042485252
0.08357287 -0.071119174 -0.046989966 0.030022629 0.052046157 0.017756194 -0.11049183 -0.069740236
0.09624487 0.026087739 0.008690661 -0.06763374 -0.044399325 0.061006352 0.09535617 -0.077887766
-0.045050714 0.053479053 0.035155136 -0.0047814627 -0.118136846 0.082141325 0.0037669996 0.063369825
-0.051476732 0.018004345 -0.017134914 -0.10712182 0.018167693 0.076083206 -0.01597422 -0.066076234
0.10807607 0.09928211 -0.073220424 0.09783591 0.033075232 -0.091788046 0.089430586 -0.08658301
00000000: 46fe d23b e1a1 bc3d b912 e83c 2711 3dbd
00000010: c632 f73d c5ed a13c a004 e7bb 5153 bfbd
00000020: 128c 90bd 6492 e23d 727e d83d 558f d6bc
00000030: 93bf 133d b3f5 fe3c 7f62 efbc 599b 7ebd
00000040: 6e1a adbd 1ffb 90bd 334a 113d c206 443d
00000050: 30a4 81bd aed3 a93d 8bb1 89bd 1769 7ebd
00000060: c910 6fbd d6de af3d 0b35 35bd 121a 6abd
00000070: a5cf 143d bfed b9bb 7248 a4bd 8f39 cf3c
00000080: 054d df3c dea9 ca3d c3d6 7cbc 10d5 43bc
00000090: 22d0 bc3d e38d 1d3d 28f3 febd 4d36 3ebc
000000a0: cff1 953c 1ff4 2f3d 83c3 26bd 1380 d83d
000000b0: e63f 0e3d b2a8 02bd 6243 66bd 07ec 933d
000000c0: 542c 0dbd e5e1 fd3c 6281 3f3b 2c5d e33d
000000d0: 6168 e73d e05e 833d 2d6a a23d 887a 0fbc
000000e0: 926d f9bc 2bcf bc3c 0ee0 e43c ca18 a83d
000000f0: d86d 8dbd c573 dc3d b860 54bd 6664 e53d
00000100: 5a17 d6bd c21f a8bc 360a 683d 9e55 4ebd
00000110: 5f2e c63d 24d7 abbd 06e0 ec3d d3ce 14bc
00000120: 07eb 40bd 4a7b 17bd 5fe4 e33b b74e b5bd
00000130: 4029 9b3d 17d6 753d e42c bdbc 7d8b c93d
00000140: 1444 1fbc 5db3 57bd 411f 35bd d152 56bd
00000150: 2f23 b9bd 6e90 a73d 6a38 0dbd 23e1 1b3c
00000160: b5ce ab3d 59e4 b0bd aeee eabd bf3e b93c
00000170: cf18 1ebd 73e2 8bbd d6f4 e83d 3921 19bc
00000180: fe48 643d 8836 d8bd a3b3 af3d b9e0 9a3d
00000190: 04a2 90bc 4909 3c3d 4d4f e83d 8091 25bc
000001a0: c4ca f9bd 39c4 debd 8b41 0f3c 9e36 c5bd
000001b0: d9d2 c73d 34b7 1c3d 41a9 d13d 6069 c43d
000001c0: 9048 ccbd e759 863d 466b cabd e874 a43d
000001d0: 8105 88bc e312 f53c 8cf8 1a3d ba58 8dbc
000001e0: b3c2 6b3d 1f2b b3bd 033f 93bd 19ec bbbd
000001f0: 7729 dd3c 72f4 aa3d 2378 1c3d fcb0 80bd
00000200: 2080 213d e436 f93d 972f 0bbd f87b 5ebc
00000210: e63a d8bd 9989 32bd 117e a5bd 6aa5 ac3d
00000220: 8f98 1cbd 4121 b4bd 4617 c83d 483f 01bd
00000230: a9e5 73bc 490e ddbd 7c5b adbd 419c b2bd
00000240: 101d edbc 512d 823d 43dd 953d eee7 2abc
00000250: 39dd 033d 3588 be3d a86c c0bd 37e7 c43d
00000260: 2519 023c 6cde 8b3d 0fe0 aa3a 3768 d43d
00000270: 4b94 f6bc 9569 d2bd 540c b2bd 27f8 2abd
00000280: 1b43 56bd f826 77bd 3c47 013e 1778 dcbc
00000290: 4207 a4bd b479 d13d 1ba9 05bd e6bf 363d
000002a0: bbec 7b3c b6fc 963d c066 edbd ec1a 2c3d
000002b0: 59e2 943d e833 45bd 37d5 f0bb 0aee a0bd
000002c0: 379d 23bd 94e2 ae3c d4b9 443d aed3 663d
000002d0: 57d7 9abc 51d6 bf3c 1197 ac3d 9d53 c0bd
000002e0: 6a0b 8abc 04a7 163d fc00 f73d aa5a c1bd
000002f0: b6f7 86bb 3f6a 9dbb 1ef6 843d 8824 c8bd
00000300: 71e5 bb3d 4632 16bd 639d 8b3d b1bd 72bd
00000310: 71d4 b5bd fc02 f2bd 69a5 69bd 2c05 a23d
00000320: 6246 8ebd 472a 94bd 3356 99bd 36e5 cd3d
00000330: 0552 883d 8f61 d4bb a56b f0bd 22e1 3cbd
00000340: 01e9 193c a70e 813c fc35 c7ba 1231 183c
00000350: 77ac ed3c 088c 11bc 8d31 febd 0405 2e3d
00000360: 4128 ab3d eea6 91bd 8d78 40bd 04f2 f53c
00000370: 5a2e 553d 7075 913c 8a49 e2bd f8d3 8ebd
00000380: 081c c53d f4b5 d53c 4663 0e3c 8f83 8abd
00000390: 11dc 35bd cce1 793d 184a c33d 9f83 9fbd
000003a0: 1987 38bd da0c 5b3d d5fe 0f3d d1ad 9cbb
000003b0: bbf1 f1bd b639 a83d c4df 763b 0ac8 813d
000003c0: 44d9 52bd d97d 933c 855e 8cbc af62 dbbd
000003d0: 6ad4 943c 83d1 9b3d 5edc 82bc fa52 87bd
000003e0: fd56 dd3d 6b54 cb3d 97f4 95bd 325e c83d
000003f0: e579 073d 5ffb bbbd 6227 b73d 6f52 b1bd

l3.to_out.bias f4 [64]
0.03749051 -0.0360958 0.005954478 -0.101604916 -0.001149263 -0.08257011 0.07441893 -0.032295328
0.088562764 0.025260804 0.06790591 -0.07030256 0.04108523 -0.047407713 0.0025019036 -0.07749224
0.115172006 -0.008923808 -0.023229716 0.09620628 0.06356971 -0.09107375 -0.01781486 0.092681915
-0.07286399 0.03719235 0.03721548 0.013746734 -0.043643504 -0.054943185 -0.04766974 0.087593965
0.02380825 -0.0056104353 0.006198478 -0.013515981 0.07440541 0.100317426 0.040157452 -0.046703305
0.08877182 -0.08871722 0.06773543 0.05653513 -0.09822103 0.045730993 -0.058189854 -0.010638839
-0.00026042914 0.08933497 -0.0889664 0.053475786 0.056933552 -0.021863079 0.0064491956 -0.000580947
-0.01876593 0.06785507 -0.015159257 -0.062628806 -0.003737206 0.0043416107 -0.07366048 0.07531921
00000000: a68f 193d 31d9 13bd c81d c33b 3d16 d0bd
00000010: dea2 96ba 851a a9bd f468 983d 1b48 04bd
00000020: 6560 b53d bfef ce3c 4112 8b3d cafa 8fbd
00000030: fc48 283d 972e 42bd faf6 233b 40b4 9ebd
00000040: 4ddf eb3d 2a35 12bc 3f4c bebc cc07 c53d
00000050: d630 823d e084 babd 78f0 91bc 04d0 bd3d
00000060: b739 95bd 0157 183d 426f 183d fb39 613c
00000070: 88c3 32bd 1b0c 61bd 5841 43bd 7764 b33d
00000080: 8509 c33c bed7 b7bb 9a1c cb3b 2272 5dbc
00000090: dd61 983d 3973 cd3d 247c 243d f74b 3fbd
000000a0: 00ce b53d 60b1 b5bd e0b8 8a3d 6191 673d
000000b0: 1b28 c9bd 6c50 3b3d 7c58 6ebd 864e 2ebc
000000c0: 358a 88b9 41f5 b63d 0434 b6bd 6d09 5b3d
000000d0: 2833 693d 331a b3bc c653 d33b b14a 18ba
000000e0: 02bb 99bc 99f7 8a3d 885e 78bc 8843 80bd
000000f0: eaeb 74bb 1244 8e3b 4edb 96bd f540 9a3d

l2.to_qkv.weight f4 [192, 64]
0.06565482 0.0154003585 0.08757632 0.0921519 -0.10022762 -0.048920248 0.020471424 0.11939835
-0.0442237 -0.07515709 0.017331235 0.13329785 0.029539486 -0.049656272 0.04599807 -0.10199186
0.10520572 0.010601122 0.15994932 0.088354 0.005563891 -0.009956374 -0.054392993 -0.0033600817
-0.03592781 0.057570565 0.012523611 0.0014443471 0.009774351 0.0716018 0.05998652 0.06635944
0.07312054 0.050551318 0.033477806 0.06410802 -0.020043844 -0.066622585 0.04351992 0.048670627
-0.014713487 0.030413387 0.086124696 0.108232535 0.0431769 0.04602192 0.038856104 -0.08815578
-0.05809163 0.023700936 0.03167523 0.113112904 0.012109738 0.08083594 0.015906055 0.07174813
0.039624795 -0.07166187 -0.14102906 -0.0940749 0.03182826 0.07469546 -0.084465005 -0.07490423
0.12539998 -0.011084419 -0.013898471 0.10703211 -0.03822139 -0.040938035 0.14077862 -0.028537255
-0.048200473 0.04705629 -0.12223444 0.0453934 0.025341496 0.05526848 0.09399455 -0.016670952
0.080893695 -0.09621535 -0.059591874 -0.038485684 -0.05169303 0.14276505 0.028419457 -0.12125666
-0.11650725 -0.08222585 0.067544214 -0.07319697 0.0011631873 0.079412386 0.1223741 -0.034708664
-0.036584884 0.028718488 -0.110512175 0.095142335 -0.03639911 0.049638517 0.08403439 -0.04780955
0.070477016 0.008489527 0.09819365 0.064317375 0.11643748 -0.03556341 0.07234578 0.013662755
0.023289772 0.12485162 0.18460019 -0.043328978 0.03485668 0.09898663 0.06744263 -0.089651704
-0.08121429 0.053798083 0.13431579 0.0711768 -0.051070157 0.13613582 -0.1705748 0.074586846
-0.07632433 -0.075602524 0.099053666 -0.104013875 0.1161981 -0.05496469 0.08648341 -0.01710272
0.052556086 0.014406635 0.04277821 -0.06396846 0.044576023 0.039918818 0.0037777245 0.06511098
-0.020575376 -0.045416046 0.08422909 -0.07455255 -0.12153717 -0.081095286 -0.032756668 -0.10063821
0.070150204 0.02306246 0.055525005 0.00482424 -0.022070963 0.091644816 -0.095973924 0.06391274
0.067733824 -0.06326124 0.05789575 0.09935412 0.07071554 0.13929245 0.1180091 0.049992025
-0.049026646 0.014324447 0.10634993 0.08451067 0.05504109 0.09966546 0.07194955 -0.09994374
-0.105624504 -0.09571298 0.0760779 0.09477953 -0.072115086 -0.07099194 -0.014293999 -0.027570358
0.07518864 0.041413397 -0.014392012 0.08616166 -0.055114996 -0.051098056 0.020813735 0.020856207
-0.063786276 0.038908724 0.09542732 -0.07564427 0.117022045 0.048570868 -0.068518065 -0.09675332
0.1375353 -0.12608156 0.08642678 0.14019161 -0.045130625 -0.035643727 0.061360504 -0.025677344
-0.11249161 -0.11862431 -0.023805274 -0.07488422 0.07406978 -0.010201476 0.05171814 -0.077589735
-0.13761722 0.02565081 -0.111341536 0.008043792 -0.09394636 -0.01116997 0.06270184 0.07870124
0.059602566 0.021951063 -0.10876033 0.094596095 -0.034434527 -0.077127345 0.036089703 -0.056792855
-0.11628186 0.030792078 0.043202527 0.03777957 0.107354745 0.12779261 0.08073915 -0.032285187
0.06284665 -0.01187434 -0.087615155 -0.038128145 -0.0051234704 0.08481706 0.10282048 -0.09609939
0.1449449 -0.025743896 0.11651208 -0.0046508675 0.13722634 0.15228096 0.06121041 0.06490679
00000000: 0976 863d c951 7c3c 375b b33d 23ba bc3d
00000010: 2344 cdbd 9960 48bd b0b3 a73c 1f87 f43d
00000020: e923 35bd f6eb 99bd 3cfa 8d3c 3b7f 083e
00000030: cbfc f13c 6064 4bbd 7968 3c3d 1ce1 d0bd
00000040: 1976 d73d 54b0 2d3c c1c9 233e f1f2 b43d
00000050: 4d51 b63b 0f20 23bc 30cb 5ebd d134 5cbb
00000060: 0a29 13bd 1dcf 6b3d d52f 4d3c 3f50 bd3a
00000070: 9924 203c f7a3 923d 6db4 753d 75e7 873d
00000080: 39c0 953d e60e 4f3d 0620 093d 114b 833d
00000090: fd32 a4bc 6c71 88bd f241 323d da5a 473d
000000a0: d610 71bc 7f25 f93c 2562 b03d 05a9 dd3d
000000b0: 43da 303d 7b81 3c3d 9427 1f3d 058b b4bd
000000c0: 7df1 6dbd 7728 c23c e3bd 013d bda7 e73d
000000d0: ec67 463c 508d a53d 6a4d 823c aff0 923d
000000e0: 9c4d 223d 75c3 92bd ec69 10be 57aa c0bd
000000f0: 595e 023d eff9 983d fdfb acbd 6467 99bd
00000100: da68 003e 6c9b 35bc 6ab6 63bc a733 db3d
00000110: 088e 1cbd a4ae 27bd 4528 103e f6c6 e9bc
00000120: dc6d 45bd 19be 403d 0d56 fabd 6eee 393d
00000130: f898 cf3c 3461 623d 3780 c03d 8591 88bc
00000140: 98ab a53d 8e0c c5bd 9c16 74bd 2aa3 1dbd
00000150: 12bc 53bd 0031 123e eccf e83c 6955 f8bd
00000160: 5a9b eebd 0766 a8bd 9f54 8a3d 4be8 95bd
00000170: 1776 983a f6a2 a23d 469f fa3d ac2a 0ebd
00000180: 08da 15bd 0943 eb3c 3554 e2bd fcd9 c23d
00000190: 3c17 15bd c251 4b3d 391a ac3d f2d3 43bd
000001a0: 4156 903d a817 0b3c c119 c93d d4b8 833d
000001b0: c676 ee3d f0aa 11bd 062a 943d bfd9 5f3c
000001c0: 31ca be3c 35b2 ff3d d507 3d3e ba79 31bd
000001d0: e1c5 0e3d 81b9 ca3d 5d1f 8a3d 509b b7bd
000001e0: ad53 a6bd 615b 5c3d 148a 093e 24c5 913d
000001f0: f12e 51bd 3067 0b3e 29ab 2ebe fdc0 983d
00000200: ee4f 9cbd 7fd5 9abd a6dc ca3d 3a05 d5bd
00000210: 45f9 ed3d a822 61bd 371e b13d 011b 8cbc
00000220: 0d45 573d cf09 6c3c 3438 2f3d e501 83bd
00000230: 5995 363d ea81 233d b393 773b e858 853d
00000240: b18d a8bc 2d06 3abd 4d80 ac3d 02af 98bd
00000250: 7be8 f8bd 4915 a6bd db2b 06bd 681b cebd
00000260: e9aa 8f3d 7ced bc3c 306e 633d a914 9e3b
00000270: 2ace b4bc 47b0 bb3d fa8d c4bd afe4 823d
00000280: 08b8 8a3d 1c8f 81bd 1824 6d3d 2c7a cb3d
00000290: 4fd3 903d aea2 0e3e c1ae f13d 70c4 4c3d
000002a0: 2ad0 48bd 16b1 6a3c fecd d93d ee13 ad3d
000002b0: c472 613d 681d cc3d 495a 933d 4eaf ccbd
000002c0: a951 d8bd 2b05 c4bd bbce 9b3d c51b c23d
000002d0: 13b1 93bd 3964 91bd 6131 6abc 3bdb e1bc
000002e0: 80fc 993d 18a1 293d 79cc 6bbc 8675 b03d
000002f0: 43c0 61bd 324c 51bd 9181 aa3c a3da aa3c
00000300: 61a2 82bd c15e 1f3d 666f c33d 62eb 9abd
00000310: 41a9 ef3d 3ff2 463d 3353 8cbd 9b26 c6bd
00000320: 0ed6 0c3e 861b 01be 8600 b13d 648e 0f3e
00000330: e4da 38bd 28ff 11bd 2755 7b3d 4b59 d2bc
00000340: 0062 e6bd 4df1 f2bd 4703 c3bc e65c 99bd
00000350: e6b1 973d 1724 27bc 66d6 533d 5ee7 9ebd
00000360: 87eb 0cbe a621 d23c 0807 e4bd 1cca 033c
00000370: f366 c0bd 4002 37bc d369 803d 1e2e a13d
00000380: d221 743d b7d2 b33c bcbd debd 99bb c13d
00000390: 380b 0dbd f1f4 9dbd ccd2 133d a09f 68bd
000003a0: 2f25 eebd ab3f fc3c 22f5 303d c0be 1a3d
000003b0: cedc db3d 11dc 023e 915a a53d 793d 04bd
000003c0: bfb5 803d 978c 42bc 936f b3bd 422c 1cbd
000003d0: c9e2 a7bb 91b4 ad3d 8b93 d23d c2cf c4bd
000003e0: 706c 143e dde4 d2bc e39d ee3d 4e66 98bb
000003f0: 1085 0c3e 8aef 1b3e c4b7 7a3d daed 843d
